node {
  name: "input"
  op: "Placeholder"
  attr {
    key: "dtype"
    value {
      type: DT_FLOAT
    }
  }
  attr {
    key: "shape"
    value {
      shape {
        dim {
          size: -1
        }
        dim {
          size: 12
        }
      }
    }
  }
}
node {
  name: "Placeholder"
  op: "Placeholder"
  attr {
    key: "dtype"
    value {
      type: DT_FLOAT
    }
  }
  attr {
    key: "shape"
    value {
      shape {
        dim {
          size: -1
        }
        dim {
          size: 6
        }
      }
    }
  }
}
node {
  name: "fully_connected/weights/Initializer/random_uniform/shape"
  op: "Const"
  attr {
    key: "_class"
    value {
      list {
        s: "loc:@fully_connected/weights"
      }
    }
  }
  attr {
    key: "dtype"
    value {
      type: DT_INT32
    }
  }
  attr {
    key: "value"
    value {
      tensor {
        dtype: DT_INT32
        tensor_shape {
          dim {
            size: 2
          }
        }
        tensor_content: "\014\000\000\000\364\001\000\000"
      }
    }
  }
}
node {
  name: "fully_connected/weights/Initializer/random_uniform/min"
  op: "Const"
  attr {
    key: "_class"
    value {
      list {
        s: "loc:@fully_connected/weights"
      }
    }
  }
  attr {
    key: "dtype"
    value {
      type: DT_FLOAT
    }
  }
  attr {
    key: "value"
    value {
      tensor {
        dtype: DT_FLOAT
        tensor_shape {
        }
        float_val: -0.10825317353010178
      }
    }
  }
}
node {
  name: "fully_connected/weights/Initializer/random_uniform/max"
  op: "Const"
  attr {
    key: "_class"
    value {
      list {
        s: "loc:@fully_connected/weights"
      }
    }
  }
  attr {
    key: "dtype"
    value {
      type: DT_FLOAT
    }
  }
  attr {
    key: "value"
    value {
      tensor {
        dtype: DT_FLOAT
        tensor_shape {
        }
        float_val: 0.10825317353010178
      }
    }
  }
}
node {
  name: "fully_connected/weights/Initializer/random_uniform/RandomUniform"
  op: "RandomUniform"
  input: "fully_connected/weights/Initializer/random_uniform/shape"
  attr {
    key: "T"
    value {
      type: DT_INT32
    }
  }
  attr {
    key: "_class"
    value {
      list {
        s: "loc:@fully_connected/weights"
      }
    }
  }
  attr {
    key: "dtype"
    value {
      type: DT_FLOAT
    }
  }
  attr {
    key: "seed"
    value {
      i: 0
    }
  }
  attr {
    key: "seed2"
    value {
      i: 0
    }
  }
}
node {
  name: "fully_connected/weights/Initializer/random_uniform/sub"
  op: "Sub"
  input: "fully_connected/weights/Initializer/random_uniform/max"
  input: "fully_connected/weights/Initializer/random_uniform/min"
  attr {
    key: "T"
    value {
      type: DT_FLOAT
    }
  }
  attr {
    key: "_class"
    value {
      list {
        s: "loc:@fully_connected/weights"
      }
    }
  }
}
node {
  name: "fully_connected/weights/Initializer/random_uniform/mul"
  op: "Mul"
  input: "fully_connected/weights/Initializer/random_uniform/RandomUniform"
  input: "fully_connected/weights/Initializer/random_uniform/sub"
  attr {
    key: "T"
    value {
      type: DT_FLOAT
    }
  }
  attr {
    key: "_class"
    value {
      list {
        s: "loc:@fully_connected/weights"
      }
    }
  }
}
node {
  name: "fully_connected/weights/Initializer/random_uniform"
  op: "Add"
  input: "fully_connected/weights/Initializer/random_uniform/mul"
  input: "fully_connected/weights/Initializer/random_uniform/min"
  attr {
    key: "T"
    value {
      type: DT_FLOAT
    }
  }
  attr {
    key: "_class"
    value {
      list {
        s: "loc:@fully_connected/weights"
      }
    }
  }
}
node {
  name: "fully_connected/weights"
  op: "VariableV2"
  attr {
    key: "_class"
    value {
      list {
        s: "loc:@fully_connected/weights"
      }
    }
  }
  attr {
    key: "container"
    value {
      s: ""
    }
  }
  attr {
    key: "dtype"
    value {
      type: DT_FLOAT
    }
  }
  attr {
    key: "shape"
    value {
      shape {
        dim {
          size: 12
        }
        dim {
          size: 500
        }
      }
    }
  }
  attr {
    key: "shared_name"
    value {
      s: ""
    }
  }
}
node {
  name: "fully_connected/weights/Assign"
  op: "Assign"
  input: "fully_connected/weights"
  input: "fully_connected/weights/Initializer/random_uniform"
  attr {
    key: "T"
    value {
      type: DT_FLOAT
    }
  }
  attr {
    key: "_class"
    value {
      list {
        s: "loc:@fully_connected/weights"
      }
    }
  }
  attr {
    key: "use_locking"
    value {
      b: true
    }
  }
  attr {
    key: "validate_shape"
    value {
      b: true
    }
  }
}
node {
  name: "fully_connected/weights/read"
  op: "Identity"
  input: "fully_connected/weights"
  attr {
    key: "T"
    value {
      type: DT_FLOAT
    }
  }
  attr {
    key: "_class"
    value {
      list {
        s: "loc:@fully_connected/weights"
      }
    }
  }
}
node {
  name: "fully_connected/biases/Initializer/zeros"
  op: "Const"
  attr {
    key: "_class"
    value {
      list {
        s: "loc:@fully_connected/biases"
      }
    }
  }
  attr {
    key: "dtype"
    value {
      type: DT_FLOAT
    }
  }
  attr {
    key: "value"
    value {
      tensor {
        dtype: DT_FLOAT
        tensor_shape {
          dim {
            size: 500
          }
        }
        float_val: 0.0
      }
    }
  }
}
node {
  name: "fully_connected/biases"
  op: "VariableV2"
  attr {
    key: "_class"
    value {
      list {
        s: "loc:@fully_connected/biases"
      }
    }
  }
  attr {
    key: "container"
    value {
      s: ""
    }
  }
  attr {
    key: "dtype"
    value {
      type: DT_FLOAT
    }
  }
  attr {
    key: "shape"
    value {
      shape {
        dim {
          size: 500
        }
      }
    }
  }
  attr {
    key: "shared_name"
    value {
      s: ""
    }
  }
}
node {
  name: "fully_connected/biases/Assign"
  op: "Assign"
  input: "fully_connected/biases"
  input: "fully_connected/biases/Initializer/zeros"
  attr {
    key: "T"
    value {
      type: DT_FLOAT
    }
  }
  attr {
    key: "_class"
    value {
      list {
        s: "loc:@fully_connected/biases"
      }
    }
  }
  attr {
    key: "use_locking"
    value {
      b: true
    }
  }
  attr {
    key: "validate_shape"
    value {
      b: true
    }
  }
}
node {
  name: "fully_connected/biases/read"
  op: "Identity"
  input: "fully_connected/biases"
  attr {
    key: "T"
    value {
      type: DT_FLOAT
    }
  }
  attr {
    key: "_class"
    value {
      list {
        s: "loc:@fully_connected/biases"
      }
    }
  }
}
node {
  name: "fully_connected/MatMul"
  op: "MatMul"
  input: "input"
  input: "fully_connected/weights/read"
  attr {
    key: "T"
    value {
      type: DT_FLOAT
    }
  }
  attr {
    key: "transpose_a"
    value {
      b: false
    }
  }
  attr {
    key: "transpose_b"
    value {
      b: false
    }
  }
}
node {
  name: "fully_connected/BiasAdd"
  op: "BiasAdd"
  input: "fully_connected/MatMul"
  input: "fully_connected/biases/read"
  attr {
    key: "T"
    value {
      type: DT_FLOAT
    }
  }
  attr {
    key: "data_format"
    value {
      s: "NHWC"
    }
  }
}
node {
  name: "fully_connected/Relu"
  op: "Relu"
  input: "fully_connected/BiasAdd"
  attr {
    key: "T"
    value {
      type: DT_FLOAT
    }
  }
}
node {
  name: "LeakyRelu/alpha"
  op: "Const"
  attr {
    key: "dtype"
    value {
      type: DT_FLOAT
    }
  }
  attr {
    key: "value"
    value {
      tensor {
        dtype: DT_FLOAT
        tensor_shape {
        }
        float_val: 0.20000000298023224
      }
    }
  }
}
node {
  name: "LeakyRelu/mul"
  op: "Mul"
  input: "LeakyRelu/alpha"
  input: "fully_connected/Relu"
  attr {
    key: "T"
    value {
      type: DT_FLOAT
    }
  }
}
node {
  name: "LeakyRelu/Maximum"
  op: "Maximum"
  input: "LeakyRelu/mul"
  input: "fully_connected/Relu"
  attr {
    key: "T"
    value {
      type: DT_FLOAT
    }
  }
}
node {
  name: "dropout/keep_prob"
  op: "Const"
  attr {
    key: "dtype"
    value {
      type: DT_FLOAT
    }
  }
  attr {
    key: "value"
    value {
      tensor {
        dtype: DT_FLOAT
        tensor_shape {
        }
        float_val: 0.800000011920929
      }
    }
  }
}
node {
  name: "dropout/Shape"
  op: "Shape"
  input: "LeakyRelu/Maximum"
  attr {
    key: "T"
    value {
      type: DT_FLOAT
    }
  }
  attr {
    key: "out_type"
    value {
      type: DT_INT32
    }
  }
}
node {
  name: "dropout/random_uniform/min"
  op: "Const"
  attr {
    key: "dtype"
    value {
      type: DT_FLOAT
    }
  }
  attr {
    key: "value"
    value {
      tensor {
        dtype: DT_FLOAT
        tensor_shape {
        }
        float_val: 0.0
      }
    }
  }
}
node {
  name: "dropout/random_uniform/max"
  op: "Const"
  attr {
    key: "dtype"
    value {
      type: DT_FLOAT
    }
  }
  attr {
    key: "value"
    value {
      tensor {
        dtype: DT_FLOAT
        tensor_shape {
        }
        float_val: 1.0
      }
    }
  }
}
node {
  name: "dropout/random_uniform/RandomUniform"
  op: "RandomUniform"
  input: "dropout/Shape"
  attr {
    key: "T"
    value {
      type: DT_INT32
    }
  }
  attr {
    key: "dtype"
    value {
      type: DT_FLOAT
    }
  }
  attr {
    key: "seed"
    value {
      i: 0
    }
  }
  attr {
    key: "seed2"
    value {
      i: 0
    }
  }
}
node {
  name: "dropout/random_uniform/sub"
  op: "Sub"
  input: "dropout/random_uniform/max"
  input: "dropout/random_uniform/min"
  attr {
    key: "T"
    value {
      type: DT_FLOAT
    }
  }
}
node {
  name: "dropout/random_uniform/mul"
  op: "Mul"
  input: "dropout/random_uniform/RandomUniform"
  input: "dropout/random_uniform/sub"
  attr {
    key: "T"
    value {
      type: DT_FLOAT
    }
  }
}
node {
  name: "dropout/random_uniform"
  op: "Add"
  input: "dropout/random_uniform/mul"
  input: "dropout/random_uniform/min"
  attr {
    key: "T"
    value {
      type: DT_FLOAT
    }
  }
}
node {
  name: "dropout/add"
  op: "Add"
  input: "dropout/keep_prob"
  input: "dropout/random_uniform"
  attr {
    key: "T"
    value {
      type: DT_FLOAT
    }
  }
}
node {
  name: "dropout/Floor"
  op: "Floor"
  input: "dropout/add"
  attr {
    key: "T"
    value {
      type: DT_FLOAT
    }
  }
}
node {
  name: "dropout/div"
  op: "RealDiv"
  input: "LeakyRelu/Maximum"
  input: "dropout/keep_prob"
  attr {
    key: "T"
    value {
      type: DT_FLOAT
    }
  }
}
node {
  name: "dropout/mul"
  op: "Mul"
  input: "dropout/div"
  input: "dropout/Floor"
  attr {
    key: "T"
    value {
      type: DT_FLOAT
    }
  }
}
node {
  name: "fully_connected_1/weights/Initializer/random_uniform/shape"
  op: "Const"
  attr {
    key: "_class"
    value {
      list {
        s: "loc:@fully_connected_1/weights"
      }
    }
  }
  attr {
    key: "dtype"
    value {
      type: DT_INT32
    }
  }
  attr {
    key: "value"
    value {
      tensor {
        dtype: DT_INT32
        tensor_shape {
          dim {
            size: 2
          }
        }
        tensor_content: "\364\001\000\000\364\001\000\000"
      }
    }
  }
}
node {
  name: "fully_connected_1/weights/Initializer/random_uniform/min"
  op: "Const"
  attr {
    key: "_class"
    value {
      list {
        s: "loc:@fully_connected_1/weights"
      }
    }
  }
  attr {
    key: "dtype"
    value {
      type: DT_FLOAT
    }
  }
  attr {
    key: "value"
    value {
      tensor {
        dtype: DT_FLOAT
        tensor_shape {
        }
        float_val: -0.0774596706032753
      }
    }
  }
}
node {
  name: "fully_connected_1/weights/Initializer/random_uniform/max"
  op: "Const"
  attr {
    key: "_class"
    value {
      list {
        s: "loc:@fully_connected_1/weights"
      }
    }
  }
  attr {
    key: "dtype"
    value {
      type: DT_FLOAT
    }
  }
  attr {
    key: "value"
    value {
      tensor {
        dtype: DT_FLOAT
        tensor_shape {
        }
        float_val: 0.0774596706032753
      }
    }
  }
}
node {
  name: "fully_connected_1/weights/Initializer/random_uniform/RandomUniform"
  op: "RandomUniform"
  input: "fully_connected_1/weights/Initializer/random_uniform/shape"
  attr {
    key: "T"
    value {
      type: DT_INT32
    }
  }
  attr {
    key: "_class"
    value {
      list {
        s: "loc:@fully_connected_1/weights"
      }
    }
  }
  attr {
    key: "dtype"
    value {
      type: DT_FLOAT
    }
  }
  attr {
    key: "seed"
    value {
      i: 0
    }
  }
  attr {
    key: "seed2"
    value {
      i: 0
    }
  }
}
node {
  name: "fully_connected_1/weights/Initializer/random_uniform/sub"
  op: "Sub"
  input: "fully_connected_1/weights/Initializer/random_uniform/max"
  input: "fully_connected_1/weights/Initializer/random_uniform/min"
  attr {
    key: "T"
    value {
      type: DT_FLOAT
    }
  }
  attr {
    key: "_class"
    value {
      list {
        s: "loc:@fully_connected_1/weights"
      }
    }
  }
}
node {
  name: "fully_connected_1/weights/Initializer/random_uniform/mul"
  op: "Mul"
  input: "fully_connected_1/weights/Initializer/random_uniform/RandomUniform"
  input: "fully_connected_1/weights/Initializer/random_uniform/sub"
  attr {
    key: "T"
    value {
      type: DT_FLOAT
    }
  }
  attr {
    key: "_class"
    value {
      list {
        s: "loc:@fully_connected_1/weights"
      }
    }
  }
}
node {
  name: "fully_connected_1/weights/Initializer/random_uniform"
  op: "Add"
  input: "fully_connected_1/weights/Initializer/random_uniform/mul"
  input: "fully_connected_1/weights/Initializer/random_uniform/min"
  attr {
    key: "T"
    value {
      type: DT_FLOAT
    }
  }
  attr {
    key: "_class"
    value {
      list {
        s: "loc:@fully_connected_1/weights"
      }
    }
  }
}
node {
  name: "fully_connected_1/weights"
  op: "VariableV2"
  attr {
    key: "_class"
    value {
      list {
        s: "loc:@fully_connected_1/weights"
      }
    }
  }
  attr {
    key: "container"
    value {
      s: ""
    }
  }
  attr {
    key: "dtype"
    value {
      type: DT_FLOAT
    }
  }
  attr {
    key: "shape"
    value {
      shape {
        dim {
          size: 500
        }
        dim {
          size: 500
        }
      }
    }
  }
  attr {
    key: "shared_name"
    value {
      s: ""
    }
  }
}
node {
  name: "fully_connected_1/weights/Assign"
  op: "Assign"
  input: "fully_connected_1/weights"
  input: "fully_connected_1/weights/Initializer/random_uniform"
  attr {
    key: "T"
    value {
      type: DT_FLOAT
    }
  }
  attr {
    key: "_class"
    value {
      list {
        s: "loc:@fully_connected_1/weights"
      }
    }
  }
  attr {
    key: "use_locking"
    value {
      b: true
    }
  }
  attr {
    key: "validate_shape"
    value {
      b: true
    }
  }
}
node {
  name: "fully_connected_1/weights/read"
  op: "Identity"
  input: "fully_connected_1/weights"
  attr {
    key: "T"
    value {
      type: DT_FLOAT
    }
  }
  attr {
    key: "_class"
    value {
      list {
        s: "loc:@fully_connected_1/weights"
      }
    }
  }
}
node {
  name: "fully_connected_1/biases/Initializer/zeros"
  op: "Const"
  attr {
    key: "_class"
    value {
      list {
        s: "loc:@fully_connected_1/biases"
      }
    }
  }
  attr {
    key: "dtype"
    value {
      type: DT_FLOAT
    }
  }
  attr {
    key: "value"
    value {
      tensor {
        dtype: DT_FLOAT
        tensor_shape {
          dim {
            size: 500
          }
        }
        float_val: 0.0
      }
    }
  }
}
node {
  name: "fully_connected_1/biases"
  op: "VariableV2"
  attr {
    key: "_class"
    value {
      list {
        s: "loc:@fully_connected_1/biases"
      }
    }
  }
  attr {
    key: "container"
    value {
      s: ""
    }
  }
  attr {
    key: "dtype"
    value {
      type: DT_FLOAT
    }
  }
  attr {
    key: "shape"
    value {
      shape {
        dim {
          size: 500
        }
      }
    }
  }
  attr {
    key: "shared_name"
    value {
      s: ""
    }
  }
}
node {
  name: "fully_connected_1/biases/Assign"
  op: "Assign"
  input: "fully_connected_1/biases"
  input: "fully_connected_1/biases/Initializer/zeros"
  attr {
    key: "T"
    value {
      type: DT_FLOAT
    }
  }
  attr {
    key: "_class"
    value {
      list {
        s: "loc:@fully_connected_1/biases"
      }
    }
  }
  attr {
    key: "use_locking"
    value {
      b: true
    }
  }
  attr {
    key: "validate_shape"
    value {
      b: true
    }
  }
}
node {
  name: "fully_connected_1/biases/read"
  op: "Identity"
  input: "fully_connected_1/biases"
  attr {
    key: "T"
    value {
      type: DT_FLOAT
    }
  }
  attr {
    key: "_class"
    value {
      list {
        s: "loc:@fully_connected_1/biases"
      }
    }
  }
}
node {
  name: "fully_connected_1/MatMul"
  op: "MatMul"
  input: "dropout/mul"
  input: "fully_connected_1/weights/read"
  attr {
    key: "T"
    value {
      type: DT_FLOAT
    }
  }
  attr {
    key: "transpose_a"
    value {
      b: false
    }
  }
  attr {
    key: "transpose_b"
    value {
      b: false
    }
  }
}
node {
  name: "fully_connected_1/BiasAdd"
  op: "BiasAdd"
  input: "fully_connected_1/MatMul"
  input: "fully_connected_1/biases/read"
  attr {
    key: "T"
    value {
      type: DT_FLOAT
    }
  }
  attr {
    key: "data_format"
    value {
      s: "NHWC"
    }
  }
}
node {
  name: "fully_connected_1/Relu"
  op: "Relu"
  input: "fully_connected_1/BiasAdd"
  attr {
    key: "T"
    value {
      type: DT_FLOAT
    }
  }
}
node {
  name: "LeakyRelu_1/alpha"
  op: "Const"
  attr {
    key: "dtype"
    value {
      type: DT_FLOAT
    }
  }
  attr {
    key: "value"
    value {
      tensor {
        dtype: DT_FLOAT
        tensor_shape {
        }
        float_val: 0.20000000298023224
      }
    }
  }
}
node {
  name: "LeakyRelu_1/mul"
  op: "Mul"
  input: "LeakyRelu_1/alpha"
  input: "fully_connected_1/Relu"
  attr {
    key: "T"
    value {
      type: DT_FLOAT
    }
  }
}
node {
  name: "LeakyRelu_1/Maximum"
  op: "Maximum"
  input: "LeakyRelu_1/mul"
  input: "fully_connected_1/Relu"
  attr {
    key: "T"
    value {
      type: DT_FLOAT
    }
  }
}
node {
  name: "dropout_1/keep_prob"
  op: "Const"
  attr {
    key: "dtype"
    value {
      type: DT_FLOAT
    }
  }
  attr {
    key: "value"
    value {
      tensor {
        dtype: DT_FLOAT
        tensor_shape {
        }
        float_val: 0.800000011920929
      }
    }
  }
}
node {
  name: "dropout_1/Shape"
  op: "Shape"
  input: "LeakyRelu_1/Maximum"
  attr {
    key: "T"
    value {
      type: DT_FLOAT
    }
  }
  attr {
    key: "out_type"
    value {
      type: DT_INT32
    }
  }
}
node {
  name: "dropout_1/random_uniform/min"
  op: "Const"
  attr {
    key: "dtype"
    value {
      type: DT_FLOAT
    }
  }
  attr {
    key: "value"
    value {
      tensor {
        dtype: DT_FLOAT
        tensor_shape {
        }
        float_val: 0.0
      }
    }
  }
}
node {
  name: "dropout_1/random_uniform/max"
  op: "Const"
  attr {
    key: "dtype"
    value {
      type: DT_FLOAT
    }
  }
  attr {
    key: "value"
    value {
      tensor {
        dtype: DT_FLOAT
        tensor_shape {
        }
        float_val: 1.0
      }
    }
  }
}
node {
  name: "dropout_1/random_uniform/RandomUniform"
  op: "RandomUniform"
  input: "dropout_1/Shape"
  attr {
    key: "T"
    value {
      type: DT_INT32
    }
  }
  attr {
    key: "dtype"
    value {
      type: DT_FLOAT
    }
  }
  attr {
    key: "seed"
    value {
      i: 0
    }
  }
  attr {
    key: "seed2"
    value {
      i: 0
    }
  }
}
node {
  name: "dropout_1/random_uniform/sub"
  op: "Sub"
  input: "dropout_1/random_uniform/max"
  input: "dropout_1/random_uniform/min"
  attr {
    key: "T"
    value {
      type: DT_FLOAT
    }
  }
}
node {
  name: "dropout_1/random_uniform/mul"
  op: "Mul"
  input: "dropout_1/random_uniform/RandomUniform"
  input: "dropout_1/random_uniform/sub"
  attr {
    key: "T"
    value {
      type: DT_FLOAT
    }
  }
}
node {
  name: "dropout_1/random_uniform"
  op: "Add"
  input: "dropout_1/random_uniform/mul"
  input: "dropout_1/random_uniform/min"
  attr {
    key: "T"
    value {
      type: DT_FLOAT
    }
  }
}
node {
  name: "dropout_1/add"
  op: "Add"
  input: "dropout_1/keep_prob"
  input: "dropout_1/random_uniform"
  attr {
    key: "T"
    value {
      type: DT_FLOAT
    }
  }
}
node {
  name: "dropout_1/Floor"
  op: "Floor"
  input: "dropout_1/add"
  attr {
    key: "T"
    value {
      type: DT_FLOAT
    }
  }
}
node {
  name: "dropout_1/div"
  op: "RealDiv"
  input: "LeakyRelu_1/Maximum"
  input: "dropout_1/keep_prob"
  attr {
    key: "T"
    value {
      type: DT_FLOAT
    }
  }
}
node {
  name: "dropout_1/mul"
  op: "Mul"
  input: "dropout_1/div"
  input: "dropout_1/Floor"
  attr {
    key: "T"
    value {
      type: DT_FLOAT
    }
  }
}
node {
  name: "fully_connected_2/weights/Initializer/random_uniform/shape"
  op: "Const"
  attr {
    key: "_class"
    value {
      list {
        s: "loc:@fully_connected_2/weights"
      }
    }
  }
  attr {
    key: "dtype"
    value {
      type: DT_INT32
    }
  }
  attr {
    key: "value"
    value {
      tensor {
        dtype: DT_INT32
        tensor_shape {
          dim {
            size: 2
          }
        }
        tensor_content: "\364\001\000\000\364\001\000\000"
      }
    }
  }
}
node {
  name: "fully_connected_2/weights/Initializer/random_uniform/min"
  op: "Const"
  attr {
    key: "_class"
    value {
      list {
        s: "loc:@fully_connected_2/weights"
      }
    }
  }
  attr {
    key: "dtype"
    value {
      type: DT_FLOAT
    }
  }
  attr {
    key: "value"
    value {
      tensor {
        dtype: DT_FLOAT
        tensor_shape {
        }
        float_val: -0.0774596706032753
      }
    }
  }
}
node {
  name: "fully_connected_2/weights/Initializer/random_uniform/max"
  op: "Const"
  attr {
    key: "_class"
    value {
      list {
        s: "loc:@fully_connected_2/weights"
      }
    }
  }
  attr {
    key: "dtype"
    value {
      type: DT_FLOAT
    }
  }
  attr {
    key: "value"
    value {
      tensor {
        dtype: DT_FLOAT
        tensor_shape {
        }
        float_val: 0.0774596706032753
      }
    }
  }
}
node {
  name: "fully_connected_2/weights/Initializer/random_uniform/RandomUniform"
  op: "RandomUniform"
  input: "fully_connected_2/weights/Initializer/random_uniform/shape"
  attr {
    key: "T"
    value {
      type: DT_INT32
    }
  }
  attr {
    key: "_class"
    value {
      list {
        s: "loc:@fully_connected_2/weights"
      }
    }
  }
  attr {
    key: "dtype"
    value {
      type: DT_FLOAT
    }
  }
  attr {
    key: "seed"
    value {
      i: 0
    }
  }
  attr {
    key: "seed2"
    value {
      i: 0
    }
  }
}
node {
  name: "fully_connected_2/weights/Initializer/random_uniform/sub"
  op: "Sub"
  input: "fully_connected_2/weights/Initializer/random_uniform/max"
  input: "fully_connected_2/weights/Initializer/random_uniform/min"
  attr {
    key: "T"
    value {
      type: DT_FLOAT
    }
  }
  attr {
    key: "_class"
    value {
      list {
        s: "loc:@fully_connected_2/weights"
      }
    }
  }
}
node {
  name: "fully_connected_2/weights/Initializer/random_uniform/mul"
  op: "Mul"
  input: "fully_connected_2/weights/Initializer/random_uniform/RandomUniform"
  input: "fully_connected_2/weights/Initializer/random_uniform/sub"
  attr {
    key: "T"
    value {
      type: DT_FLOAT
    }
  }
  attr {
    key: "_class"
    value {
      list {
        s: "loc:@fully_connected_2/weights"
      }
    }
  }
}
node {
  name: "fully_connected_2/weights/Initializer/random_uniform"
  op: "Add"
  input: "fully_connected_2/weights/Initializer/random_uniform/mul"
  input: "fully_connected_2/weights/Initializer/random_uniform/min"
  attr {
    key: "T"
    value {
      type: DT_FLOAT
    }
  }
  attr {
    key: "_class"
    value {
      list {
        s: "loc:@fully_connected_2/weights"
      }
    }
  }
}
node {
  name: "fully_connected_2/weights"
  op: "VariableV2"
  attr {
    key: "_class"
    value {
      list {
        s: "loc:@fully_connected_2/weights"
      }
    }
  }
  attr {
    key: "container"
    value {
      s: ""
    }
  }
  attr {
    key: "dtype"
    value {
      type: DT_FLOAT
    }
  }
  attr {
    key: "shape"
    value {
      shape {
        dim {
          size: 500
        }
        dim {
          size: 500
        }
      }
    }
  }
  attr {
    key: "shared_name"
    value {
      s: ""
    }
  }
}
node {
  name: "fully_connected_2/weights/Assign"
  op: "Assign"
  input: "fully_connected_2/weights"
  input: "fully_connected_2/weights/Initializer/random_uniform"
  attr {
    key: "T"
    value {
      type: DT_FLOAT
    }
  }
  attr {
    key: "_class"
    value {
      list {
        s: "loc:@fully_connected_2/weights"
      }
    }
  }
  attr {
    key: "use_locking"
    value {
      b: true
    }
  }
  attr {
    key: "validate_shape"
    value {
      b: true
    }
  }
}
node {
  name: "fully_connected_2/weights/read"
  op: "Identity"
  input: "fully_connected_2/weights"
  attr {
    key: "T"
    value {
      type: DT_FLOAT
    }
  }
  attr {
    key: "_class"
    value {
      list {
        s: "loc:@fully_connected_2/weights"
      }
    }
  }
}
node {
  name: "fully_connected_2/biases/Initializer/zeros"
  op: "Const"
  attr {
    key: "_class"
    value {
      list {
        s: "loc:@fully_connected_2/biases"
      }
    }
  }
  attr {
    key: "dtype"
    value {
      type: DT_FLOAT
    }
  }
  attr {
    key: "value"
    value {
      tensor {
        dtype: DT_FLOAT
        tensor_shape {
          dim {
            size: 500
          }
        }
        float_val: 0.0
      }
    }
  }
}
node {
  name: "fully_connected_2/biases"
  op: "VariableV2"
  attr {
    key: "_class"
    value {
      list {
        s: "loc:@fully_connected_2/biases"
      }
    }
  }
  attr {
    key: "container"
    value {
      s: ""
    }
  }
  attr {
    key: "dtype"
    value {
      type: DT_FLOAT
    }
  }
  attr {
    key: "shape"
    value {
      shape {
        dim {
          size: 500
        }
      }
    }
  }
  attr {
    key: "shared_name"
    value {
      s: ""
    }
  }
}
node {
  name: "fully_connected_2/biases/Assign"
  op: "Assign"
  input: "fully_connected_2/biases"
  input: "fully_connected_2/biases/Initializer/zeros"
  attr {
    key: "T"
    value {
      type: DT_FLOAT
    }
  }
  attr {
    key: "_class"
    value {
      list {
        s: "loc:@fully_connected_2/biases"
      }
    }
  }
  attr {
    key: "use_locking"
    value {
      b: true
    }
  }
  attr {
    key: "validate_shape"
    value {
      b: true
    }
  }
}
node {
  name: "fully_connected_2/biases/read"
  op: "Identity"
  input: "fully_connected_2/biases"
  attr {
    key: "T"
    value {
      type: DT_FLOAT
    }
  }
  attr {
    key: "_class"
    value {
      list {
        s: "loc:@fully_connected_2/biases"
      }
    }
  }
}
node {
  name: "fully_connected_2/MatMul"
  op: "MatMul"
  input: "dropout_1/mul"
  input: "fully_connected_2/weights/read"
  attr {
    key: "T"
    value {
      type: DT_FLOAT
    }
  }
  attr {
    key: "transpose_a"
    value {
      b: false
    }
  }
  attr {
    key: "transpose_b"
    value {
      b: false
    }
  }
}
node {
  name: "fully_connected_2/BiasAdd"
  op: "BiasAdd"
  input: "fully_connected_2/MatMul"
  input: "fully_connected_2/biases/read"
  attr {
    key: "T"
    value {
      type: DT_FLOAT
    }
  }
  attr {
    key: "data_format"
    value {
      s: "NHWC"
    }
  }
}
node {
  name: "fully_connected_2/Relu"
  op: "Relu"
  input: "fully_connected_2/BiasAdd"
  attr {
    key: "T"
    value {
      type: DT_FLOAT
    }
  }
}
node {
  name: "LeakyRelu_2/alpha"
  op: "Const"
  attr {
    key: "dtype"
    value {
      type: DT_FLOAT
    }
  }
  attr {
    key: "value"
    value {
      tensor {
        dtype: DT_FLOAT
        tensor_shape {
        }
        float_val: 0.20000000298023224
      }
    }
  }
}
node {
  name: "LeakyRelu_2/mul"
  op: "Mul"
  input: "LeakyRelu_2/alpha"
  input: "fully_connected_2/Relu"
  attr {
    key: "T"
    value {
      type: DT_FLOAT
    }
  }
}
node {
  name: "LeakyRelu_2/Maximum"
  op: "Maximum"
  input: "LeakyRelu_2/mul"
  input: "fully_connected_2/Relu"
  attr {
    key: "T"
    value {
      type: DT_FLOAT
    }
  }
}
node {
  name: "dropout_2/keep_prob"
  op: "Const"
  attr {
    key: "dtype"
    value {
      type: DT_FLOAT
    }
  }
  attr {
    key: "value"
    value {
      tensor {
        dtype: DT_FLOAT
        tensor_shape {
        }
        float_val: 0.800000011920929
      }
    }
  }
}
node {
  name: "dropout_2/Shape"
  op: "Shape"
  input: "LeakyRelu_2/Maximum"
  attr {
    key: "T"
    value {
      type: DT_FLOAT
    }
  }
  attr {
    key: "out_type"
    value {
      type: DT_INT32
    }
  }
}
node {
  name: "dropout_2/random_uniform/min"
  op: "Const"
  attr {
    key: "dtype"
    value {
      type: DT_FLOAT
    }
  }
  attr {
    key: "value"
    value {
      tensor {
        dtype: DT_FLOAT
        tensor_shape {
        }
        float_val: 0.0
      }
    }
  }
}
node {
  name: "dropout_2/random_uniform/max"
  op: "Const"
  attr {
    key: "dtype"
    value {
      type: DT_FLOAT
    }
  }
  attr {
    key: "value"
    value {
      tensor {
        dtype: DT_FLOAT
        tensor_shape {
        }
        float_val: 1.0
      }
    }
  }
}
node {
  name: "dropout_2/random_uniform/RandomUniform"
  op: "RandomUniform"
  input: "dropout_2/Shape"
  attr {
    key: "T"
    value {
      type: DT_INT32
    }
  }
  attr {
    key: "dtype"
    value {
      type: DT_FLOAT
    }
  }
  attr {
    key: "seed"
    value {
      i: 0
    }
  }
  attr {
    key: "seed2"
    value {
      i: 0
    }
  }
}
node {
  name: "dropout_2/random_uniform/sub"
  op: "Sub"
  input: "dropout_2/random_uniform/max"
  input: "dropout_2/random_uniform/min"
  attr {
    key: "T"
    value {
      type: DT_FLOAT
    }
  }
}
node {
  name: "dropout_2/random_uniform/mul"
  op: "Mul"
  input: "dropout_2/random_uniform/RandomUniform"
  input: "dropout_2/random_uniform/sub"
  attr {
    key: "T"
    value {
      type: DT_FLOAT
    }
  }
}
node {
  name: "dropout_2/random_uniform"
  op: "Add"
  input: "dropout_2/random_uniform/mul"
  input: "dropout_2/random_uniform/min"
  attr {
    key: "T"
    value {
      type: DT_FLOAT
    }
  }
}
node {
  name: "dropout_2/add"
  op: "Add"
  input: "dropout_2/keep_prob"
  input: "dropout_2/random_uniform"
  attr {
    key: "T"
    value {
      type: DT_FLOAT
    }
  }
}
node {
  name: "dropout_2/Floor"
  op: "Floor"
  input: "dropout_2/add"
  attr {
    key: "T"
    value {
      type: DT_FLOAT
    }
  }
}
node {
  name: "dropout_2/div"
  op: "RealDiv"
  input: "LeakyRelu_2/Maximum"
  input: "dropout_2/keep_prob"
  attr {
    key: "T"
    value {
      type: DT_FLOAT
    }
  }
}
node {
  name: "dropout_2/mul"
  op: "Mul"
  input: "dropout_2/div"
  input: "dropout_2/Floor"
  attr {
    key: "T"
    value {
      type: DT_FLOAT
    }
  }
}
node {
  name: "fully_connected_3/weights/Initializer/random_uniform/shape"
  op: "Const"
  attr {
    key: "_class"
    value {
      list {
        s: "loc:@fully_connected_3/weights"
      }
    }
  }
  attr {
    key: "dtype"
    value {
      type: DT_INT32
    }
  }
  attr {
    key: "value"
    value {
      tensor {
        dtype: DT_INT32
        tensor_shape {
          dim {
            size: 2
          }
        }
        tensor_content: "\364\001\000\000\006\000\000\000"
      }
    }
  }
}
node {
  name: "fully_connected_3/weights/Initializer/random_uniform/min"
  op: "Const"
  attr {
    key: "_class"
    value {
      list {
        s: "loc:@fully_connected_3/weights"
      }
    }
  }
  attr {
    key: "dtype"
    value {
      type: DT_FLOAT
    }
  }
  attr {
    key: "value"
    value {
      tensor {
        dtype: DT_FLOAT
        tensor_shape {
        }
        float_val: -0.10889310389757156
      }
    }
  }
}
node {
  name: "fully_connected_3/weights/Initializer/random_uniform/max"
  op: "Const"
  attr {
    key: "_class"
    value {
      list {
        s: "loc:@fully_connected_3/weights"
      }
    }
  }
  attr {
    key: "dtype"
    value {
      type: DT_FLOAT
    }
  }
  attr {
    key: "value"
    value {
      tensor {
        dtype: DT_FLOAT
        tensor_shape {
        }
        float_val: 0.10889310389757156
      }
    }
  }
}
node {
  name: "fully_connected_3/weights/Initializer/random_uniform/RandomUniform"
  op: "RandomUniform"
  input: "fully_connected_3/weights/Initializer/random_uniform/shape"
  attr {
    key: "T"
    value {
      type: DT_INT32
    }
  }
  attr {
    key: "_class"
    value {
      list {
        s: "loc:@fully_connected_3/weights"
      }
    }
  }
  attr {
    key: "dtype"
    value {
      type: DT_FLOAT
    }
  }
  attr {
    key: "seed"
    value {
      i: 0
    }
  }
  attr {
    key: "seed2"
    value {
      i: 0
    }
  }
}
node {
  name: "fully_connected_3/weights/Initializer/random_uniform/sub"
  op: "Sub"
  input: "fully_connected_3/weights/Initializer/random_uniform/max"
  input: "fully_connected_3/weights/Initializer/random_uniform/min"
  attr {
    key: "T"
    value {
      type: DT_FLOAT
    }
  }
  attr {
    key: "_class"
    value {
      list {
        s: "loc:@fully_connected_3/weights"
      }
    }
  }
}
node {
  name: "fully_connected_3/weights/Initializer/random_uniform/mul"
  op: "Mul"
  input: "fully_connected_3/weights/Initializer/random_uniform/RandomUniform"
  input: "fully_connected_3/weights/Initializer/random_uniform/sub"
  attr {
    key: "T"
    value {
      type: DT_FLOAT
    }
  }
  attr {
    key: "_class"
    value {
      list {
        s: "loc:@fully_connected_3/weights"
      }
    }
  }
}
node {
  name: "fully_connected_3/weights/Initializer/random_uniform"
  op: "Add"
  input: "fully_connected_3/weights/Initializer/random_uniform/mul"
  input: "fully_connected_3/weights/Initializer/random_uniform/min"
  attr {
    key: "T"
    value {
      type: DT_FLOAT
    }
  }
  attr {
    key: "_class"
    value {
      list {
        s: "loc:@fully_connected_3/weights"
      }
    }
  }
}
node {
  name: "fully_connected_3/weights"
  op: "VariableV2"
  attr {
    key: "_class"
    value {
      list {
        s: "loc:@fully_connected_3/weights"
      }
    }
  }
  attr {
    key: "container"
    value {
      s: ""
    }
  }
  attr {
    key: "dtype"
    value {
      type: DT_FLOAT
    }
  }
  attr {
    key: "shape"
    value {
      shape {
        dim {
          size: 500
        }
        dim {
          size: 6
        }
      }
    }
  }
  attr {
    key: "shared_name"
    value {
      s: ""
    }
  }
}
node {
  name: "fully_connected_3/weights/Assign"
  op: "Assign"
  input: "fully_connected_3/weights"
  input: "fully_connected_3/weights/Initializer/random_uniform"
  attr {
    key: "T"
    value {
      type: DT_FLOAT
    }
  }
  attr {
    key: "_class"
    value {
      list {
        s: "loc:@fully_connected_3/weights"
      }
    }
  }
  attr {
    key: "use_locking"
    value {
      b: true
    }
  }
  attr {
    key: "validate_shape"
    value {
      b: true
    }
  }
}
node {
  name: "fully_connected_3/weights/read"
  op: "Identity"
  input: "fully_connected_3/weights"
  attr {
    key: "T"
    value {
      type: DT_FLOAT
    }
  }
  attr {
    key: "_class"
    value {
      list {
        s: "loc:@fully_connected_3/weights"
      }
    }
  }
}
node {
  name: "fully_connected_3/biases/Initializer/zeros"
  op: "Const"
  attr {
    key: "_class"
    value {
      list {
        s: "loc:@fully_connected_3/biases"
      }
    }
  }
  attr {
    key: "dtype"
    value {
      type: DT_FLOAT
    }
  }
  attr {
    key: "value"
    value {
      tensor {
        dtype: DT_FLOAT
        tensor_shape {
          dim {
            size: 6
          }
        }
        float_val: 0.0
      }
    }
  }
}
node {
  name: "fully_connected_3/biases"
  op: "VariableV2"
  attr {
    key: "_class"
    value {
      list {
        s: "loc:@fully_connected_3/biases"
      }
    }
  }
  attr {
    key: "container"
    value {
      s: ""
    }
  }
  attr {
    key: "dtype"
    value {
      type: DT_FLOAT
    }
  }
  attr {
    key: "shape"
    value {
      shape {
        dim {
          size: 6
        }
      }
    }
  }
  attr {
    key: "shared_name"
    value {
      s: ""
    }
  }
}
node {
  name: "fully_connected_3/biases/Assign"
  op: "Assign"
  input: "fully_connected_3/biases"
  input: "fully_connected_3/biases/Initializer/zeros"
  attr {
    key: "T"
    value {
      type: DT_FLOAT
    }
  }
  attr {
    key: "_class"
    value {
      list {
        s: "loc:@fully_connected_3/biases"
      }
    }
  }
  attr {
    key: "use_locking"
    value {
      b: true
    }
  }
  attr {
    key: "validate_shape"
    value {
      b: true
    }
  }
}
node {
  name: "fully_connected_3/biases/read"
  op: "Identity"
  input: "fully_connected_3/biases"
  attr {
    key: "T"
    value {
      type: DT_FLOAT
    }
  }
  attr {
    key: "_class"
    value {
      list {
        s: "loc:@fully_connected_3/biases"
      }
    }
  }
}
node {
  name: "fully_connected_3/MatMul"
  op: "MatMul"
  input: "dropout_2/mul"
  input: "fully_connected_3/weights/read"
  attr {
    key: "T"
    value {
      type: DT_FLOAT
    }
  }
  attr {
    key: "transpose_a"
    value {
      b: false
    }
  }
  attr {
    key: "transpose_b"
    value {
      b: false
    }
  }
}
node {
  name: "fully_connected_3/BiasAdd"
  op: "BiasAdd"
  input: "fully_connected_3/MatMul"
  input: "fully_connected_3/biases/read"
  attr {
    key: "T"
    value {
      type: DT_FLOAT
    }
  }
  attr {
    key: "data_format"
    value {
      s: "NHWC"
    }
  }
}
node {
  name: "fully_connected_3/Relu"
  op: "Relu"
  input: "fully_connected_3/BiasAdd"
  attr {
    key: "T"
    value {
      type: DT_FLOAT
    }
  }
}
node {
  name: "output/alpha"
  op: "Const"
  attr {
    key: "dtype"
    value {
      type: DT_FLOAT
    }
  }
  attr {
    key: "value"
    value {
      tensor {
        dtype: DT_FLOAT
        tensor_shape {
        }
        float_val: 0.20000000298023224
      }
    }
  }
}
node {
  name: "output/mul"
  op: "Mul"
  input: "output/alpha"
  input: "fully_connected_3/Relu"
  attr {
    key: "T"
    value {
      type: DT_FLOAT
    }
  }
}
node {
  name: "output/Maximum"
  op: "Maximum"
  input: "output/mul"
  input: "fully_connected_3/Relu"
  attr {
    key: "T"
    value {
      type: DT_FLOAT
    }
  }
}
node {
  name: "mean_squared_error/SquaredDifference"
  op: "SquaredDifference"
  input: "Placeholder"
  input: "output/Maximum"
  attr {
    key: "T"
    value {
      type: DT_FLOAT
    }
  }
}
node {
  name: "mean_squared_error/assert_broadcastable/weights"
  op: "Const"
  attr {
    key: "dtype"
    value {
      type: DT_FLOAT
    }
  }
  attr {
    key: "value"
    value {
      tensor {
        dtype: DT_FLOAT
        tensor_shape {
        }
        float_val: 1.0
      }
    }
  }
}
node {
  name: "mean_squared_error/assert_broadcastable/weights/shape"
  op: "Const"
  attr {
    key: "dtype"
    value {
      type: DT_INT32
    }
  }
  attr {
    key: "value"
    value {
      tensor {
        dtype: DT_INT32
        tensor_shape {
          dim {
          }
        }
      }
    }
  }
}
node {
  name: "mean_squared_error/assert_broadcastable/weights/rank"
  op: "Const"
  attr {
    key: "dtype"
    value {
      type: DT_INT32
    }
  }
  attr {
    key: "value"
    value {
      tensor {
        dtype: DT_INT32
        tensor_shape {
        }
        int_val: 0
      }
    }
  }
}
node {
  name: "mean_squared_error/assert_broadcastable/values/shape"
  op: "Shape"
  input: "mean_squared_error/SquaredDifference"
  attr {
    key: "T"
    value {
      type: DT_FLOAT
    }
  }
  attr {
    key: "out_type"
    value {
      type: DT_INT32
    }
  }
}
node {
  name: "mean_squared_error/assert_broadcastable/values/rank"
  op: "Const"
  attr {
    key: "dtype"
    value {
      type: DT_INT32
    }
  }
  attr {
    key: "value"
    value {
      tensor {
        dtype: DT_INT32
        tensor_shape {
        }
        int_val: 2
      }
    }
  }
}
node {
  name: "mean_squared_error/assert_broadcastable/static_scalar_check_success"
  op: "NoOp"
}
node {
  name: "mean_squared_error/ToFloat_3/x"
  op: "Const"
  input: "^mean_squared_error/assert_broadcastable/static_scalar_check_success"
  attr {
    key: "dtype"
    value {
      type: DT_FLOAT
    }
  }
  attr {
    key: "value"
    value {
      tensor {
        dtype: DT_FLOAT
        tensor_shape {
        }
        float_val: 1.0
      }
    }
  }
}
node {
  name: "mean_squared_error/Mul"
  op: "Mul"
  input: "mean_squared_error/SquaredDifference"
  input: "mean_squared_error/ToFloat_3/x"
  attr {
    key: "T"
    value {
      type: DT_FLOAT
    }
  }
}
node {
  name: "mean_squared_error/Const"
  op: "Const"
  input: "^mean_squared_error/assert_broadcastable/static_scalar_check_success"
  attr {
    key: "dtype"
    value {
      type: DT_INT32
    }
  }
  attr {
    key: "value"
    value {
      tensor {
        dtype: DT_INT32
        tensor_shape {
          dim {
            size: 2
          }
        }
        tensor_content: "\000\000\000\000\001\000\000\000"
      }
    }
  }
}
node {
  name: "mean_squared_error/Sum"
  op: "Sum"
  input: "mean_squared_error/Mul"
  input: "mean_squared_error/Const"
  attr {
    key: "T"
    value {
      type: DT_FLOAT
    }
  }
  attr {
    key: "Tidx"
    value {
      type: DT_INT32
    }
  }
  attr {
    key: "keep_dims"
    value {
      b: false
    }
  }
}
node {
  name: "mean_squared_error/num_present/Equal/y"
  op: "Const"
  input: "^mean_squared_error/assert_broadcastable/static_scalar_check_success"
  attr {
    key: "dtype"
    value {
      type: DT_FLOAT
    }
  }
  attr {
    key: "value"
    value {
      tensor {
        dtype: DT_FLOAT
        tensor_shape {
        }
        float_val: 0.0
      }
    }
  }
}
node {
  name: "mean_squared_error/num_present/Equal"
  op: "Equal"
  input: "mean_squared_error/ToFloat_3/x"
  input: "mean_squared_error/num_present/Equal/y"
  attr {
    key: "T"
    value {
      type: DT_FLOAT
    }
  }
}
node {
  name: "mean_squared_error/num_present/zeros_like"
  op: "Const"
  input: "^mean_squared_error/assert_broadcastable/static_scalar_check_success"
  attr {
    key: "dtype"
    value {
      type: DT_FLOAT
    }
  }
  attr {
    key: "value"
    value {
      tensor {
        dtype: DT_FLOAT
        tensor_shape {
        }
        float_val: 0.0
      }
    }
  }
}
node {
  name: "mean_squared_error/num_present/ones_like/Shape"
  op: "Const"
  input: "^mean_squared_error/assert_broadcastable/static_scalar_check_success"
  attr {
    key: "dtype"
    value {
      type: DT_INT32
    }
  }
  attr {
    key: "value"
    value {
      tensor {
        dtype: DT_INT32
        tensor_shape {
          dim {
          }
        }
      }
    }
  }
}
node {
  name: "mean_squared_error/num_present/ones_like/Const"
  op: "Const"
  input: "^mean_squared_error/assert_broadcastable/static_scalar_check_success"
  attr {
    key: "dtype"
    value {
      type: DT_FLOAT
    }
  }
  attr {
    key: "value"
    value {
      tensor {
        dtype: DT_FLOAT
        tensor_shape {
        }
        float_val: 1.0
      }
    }
  }
}
node {
  name: "mean_squared_error/num_present/ones_like"
  op: "Fill"
  input: "mean_squared_error/num_present/ones_like/Shape"
  input: "mean_squared_error/num_present/ones_like/Const"
  attr {
    key: "T"
    value {
      type: DT_FLOAT
    }
  }
}
node {
  name: "mean_squared_error/num_present/Select"
  op: "Select"
  input: "mean_squared_error/num_present/Equal"
  input: "mean_squared_error/num_present/zeros_like"
  input: "mean_squared_error/num_present/ones_like"
  attr {
    key: "T"
    value {
      type: DT_FLOAT
    }
  }
}
node {
  name: "mean_squared_error/num_present/broadcast_weights/assert_broadcastable/weights/shape"
  op: "Const"
  input: "^mean_squared_error/assert_broadcastable/static_scalar_check_success"
  attr {
    key: "dtype"
    value {
      type: DT_INT32
    }
  }
  attr {
    key: "value"
    value {
      tensor {
        dtype: DT_INT32
        tensor_shape {
          dim {
          }
        }
      }
    }
  }
}
node {
  name: "mean_squared_error/num_present/broadcast_weights/assert_broadcastable/weights/rank"
  op: "Const"
  input: "^mean_squared_error/assert_broadcastable/static_scalar_check_success"
  attr {
    key: "dtype"
    value {
      type: DT_INT32
    }
  }
  attr {
    key: "value"
    value {
      tensor {
        dtype: DT_INT32
        tensor_shape {
        }
        int_val: 0
      }
    }
  }
}
node {
  name: "mean_squared_error/num_present/broadcast_weights/assert_broadcastable/values/shape"
  op: "Shape"
  input: "mean_squared_error/SquaredDifference"
  input: "^mean_squared_error/assert_broadcastable/static_scalar_check_success"
  attr {
    key: "T"
    value {
      type: DT_FLOAT
    }
  }
  attr {
    key: "out_type"
    value {
      type: DT_INT32
    }
  }
}
node {
  name: "mean_squared_error/num_present/broadcast_weights/assert_broadcastable/values/rank"
  op: "Const"
  input: "^mean_squared_error/assert_broadcastable/static_scalar_check_success"
  attr {
    key: "dtype"
    value {
      type: DT_INT32
    }
  }
  attr {
    key: "value"
    value {
      tensor {
        dtype: DT_INT32
        tensor_shape {
        }
        int_val: 2
      }
    }
  }
}
node {
  name: "mean_squared_error/num_present/broadcast_weights/assert_broadcastable/static_scalar_check_success"
  op: "NoOp"
  input: "^mean_squared_error/assert_broadcastable/static_scalar_check_success"
}
node {
  name: "mean_squared_error/num_present/broadcast_weights/ones_like/Shape"
  op: "Shape"
  input: "mean_squared_error/SquaredDifference"
  input: "^mean_squared_error/assert_broadcastable/static_scalar_check_success"
  input: "^mean_squared_error/num_present/broadcast_weights/assert_broadcastable/static_scalar_check_success"
  attr {
    key: "T"
    value {
      type: DT_FLOAT
    }
  }
  attr {
    key: "out_type"
    value {
      type: DT_INT32
    }
  }
}
node {
  name: "mean_squared_error/num_present/broadcast_weights/ones_like/Const"
  op: "Const"
  input: "^mean_squared_error/assert_broadcastable/static_scalar_check_success"
  input: "^mean_squared_error/num_present/broadcast_weights/assert_broadcastable/static_scalar_check_success"
  attr {
    key: "dtype"
    value {
      type: DT_FLOAT
    }
  }
  attr {
    key: "value"
    value {
      tensor {
        dtype: DT_FLOAT
        tensor_shape {
        }
        float_val: 1.0
      }
    }
  }
}
node {
  name: "mean_squared_error/num_present/broadcast_weights/ones_like"
  op: "Fill"
  input: "mean_squared_error/num_present/broadcast_weights/ones_like/Shape"
  input: "mean_squared_error/num_present/broadcast_weights/ones_like/Const"
  attr {
    key: "T"
    value {
      type: DT_FLOAT
    }
  }
}
node {
  name: "mean_squared_error/num_present/broadcast_weights"
  op: "Mul"
  input: "mean_squared_error/num_present/Select"
  input: "mean_squared_error/num_present/broadcast_weights/ones_like"
  attr {
    key: "T"
    value {
      type: DT_FLOAT
    }
  }
}
node {
  name: "mean_squared_error/num_present/Const"
  op: "Const"
  input: "^mean_squared_error/assert_broadcastable/static_scalar_check_success"
  attr {
    key: "dtype"
    value {
      type: DT_INT32
    }
  }
  attr {
    key: "value"
    value {
      tensor {
        dtype: DT_INT32
        tensor_shape {
          dim {
            size: 2
          }
        }
        tensor_content: "\000\000\000\000\001\000\000\000"
      }
    }
  }
}
node {
  name: "mean_squared_error/num_present"
  op: "Sum"
  input: "mean_squared_error/num_present/broadcast_weights"
  input: "mean_squared_error/num_present/Const"
  attr {
    key: "T"
    value {
      type: DT_FLOAT
    }
  }
  attr {
    key: "Tidx"
    value {
      type: DT_INT32
    }
  }
  attr {
    key: "keep_dims"
    value {
      b: false
    }
  }
}
node {
  name: "mean_squared_error/Const_1"
  op: "Const"
  input: "^mean_squared_error/assert_broadcastable/static_scalar_check_success"
  attr {
    key: "dtype"
    value {
      type: DT_INT32
    }
  }
  attr {
    key: "value"
    value {
      tensor {
        dtype: DT_INT32
        tensor_shape {
          dim {
          }
        }
      }
    }
  }
}
node {
  name: "mean_squared_error/Sum_1"
  op: "Sum"
  input: "mean_squared_error/Sum"
  input: "mean_squared_error/Const_1"
  attr {
    key: "T"
    value {
      type: DT_FLOAT
    }
  }
  attr {
    key: "Tidx"
    value {
      type: DT_INT32
    }
  }
  attr {
    key: "keep_dims"
    value {
      b: false
    }
  }
}
node {
  name: "mean_squared_error/Greater/y"
  op: "Const"
  input: "^mean_squared_error/assert_broadcastable/static_scalar_check_success"
  attr {
    key: "dtype"
    value {
      type: DT_FLOAT
    }
  }
  attr {
    key: "value"
    value {
      tensor {
        dtype: DT_FLOAT
        tensor_shape {
        }
        float_val: 0.0
      }
    }
  }
}
node {
  name: "mean_squared_error/Greater"
  op: "Greater"
  input: "mean_squared_error/num_present"
  input: "mean_squared_error/Greater/y"
  attr {
    key: "T"
    value {
      type: DT_FLOAT
    }
  }
}
node {
  name: "mean_squared_error/Equal/y"
  op: "Const"
  input: "^mean_squared_error/assert_broadcastable/static_scalar_check_success"
  attr {
    key: "dtype"
    value {
      type: DT_FLOAT
    }
  }
  attr {
    key: "value"
    value {
      tensor {
        dtype: DT_FLOAT
        tensor_shape {
        }
        float_val: 0.0
      }
    }
  }
}
node {
  name: "mean_squared_error/Equal"
  op: "Equal"
  input: "mean_squared_error/num_present"
  input: "mean_squared_error/Equal/y"
  attr {
    key: "T"
    value {
      type: DT_FLOAT
    }
  }
}
node {
  name: "mean_squared_error/ones_like/Shape"
  op: "Const"
  input: "^mean_squared_error/assert_broadcastable/static_scalar_check_success"
  attr {
    key: "dtype"
    value {
      type: DT_INT32
    }
  }
  attr {
    key: "value"
    value {
      tensor {
        dtype: DT_INT32
        tensor_shape {
          dim {
          }
        }
      }
    }
  }
}
node {
  name: "mean_squared_error/ones_like/Const"
  op: "Const"
  input: "^mean_squared_error/assert_broadcastable/static_scalar_check_success"
  attr {
    key: "dtype"
    value {
      type: DT_FLOAT
    }
  }
  attr {
    key: "value"
    value {
      tensor {
        dtype: DT_FLOAT
        tensor_shape {
        }
        float_val: 1.0
      }
    }
  }
}
node {
  name: "mean_squared_error/ones_like"
  op: "Fill"
  input: "mean_squared_error/ones_like/Shape"
  input: "mean_squared_error/ones_like/Const"
  attr {
    key: "T"
    value {
      type: DT_FLOAT
    }
  }
}
node {
  name: "mean_squared_error/Select"
  op: "Select"
  input: "mean_squared_error/Equal"
  input: "mean_squared_error/ones_like"
  input: "mean_squared_error/num_present"
  attr {
    key: "T"
    value {
      type: DT_FLOAT
    }
  }
}
node {
  name: "mean_squared_error/div"
  op: "RealDiv"
  input: "mean_squared_error/Sum_1"
  input: "mean_squared_error/Select"
  attr {
    key: "T"
    value {
      type: DT_FLOAT
    }
  }
}
node {
  name: "mean_squared_error/zeros_like"
  op: "Const"
  input: "^mean_squared_error/assert_broadcastable/static_scalar_check_success"
  attr {
    key: "dtype"
    value {
      type: DT_FLOAT
    }
  }
  attr {
    key: "value"
    value {
      tensor {
        dtype: DT_FLOAT
        tensor_shape {
        }
        float_val: 0.0
      }
    }
  }
}
node {
  name: "mean_squared_error/value"
  op: "Select"
  input: "mean_squared_error/Greater"
  input: "mean_squared_error/div"
  input: "mean_squared_error/zeros_like"
  attr {
    key: "T"
    value {
      type: DT_FLOAT
    }
  }
}
node {
  name: "gradients/Shape"
  op: "Const"
  attr {
    key: "dtype"
    value {
      type: DT_INT32
    }
  }
  attr {
    key: "value"
    value {
      tensor {
        dtype: DT_INT32
        tensor_shape {
          dim {
          }
        }
      }
    }
  }
}
node {
  name: "gradients/grad_ys_0"
  op: "Const"
  attr {
    key: "dtype"
    value {
      type: DT_FLOAT
    }
  }
  attr {
    key: "value"
    value {
      tensor {
        dtype: DT_FLOAT
        tensor_shape {
        }
        float_val: 1.0
      }
    }
  }
}
node {
  name: "gradients/Fill"
  op: "Fill"
  input: "gradients/Shape"
  input: "gradients/grad_ys_0"
  attr {
    key: "T"
    value {
      type: DT_FLOAT
    }
  }
}
node {
  name: "gradients/mean_squared_error/value_grad/zeros_like"
  op: "Const"
  attr {
    key: "dtype"
    value {
      type: DT_FLOAT
    }
  }
  attr {
    key: "value"
    value {
      tensor {
        dtype: DT_FLOAT
        tensor_shape {
        }
        float_val: 0.0
      }
    }
  }
}
node {
  name: "gradients/mean_squared_error/value_grad/Select"
  op: "Select"
  input: "mean_squared_error/Greater"
  input: "gradients/Fill"
  input: "gradients/mean_squared_error/value_grad/zeros_like"
  attr {
    key: "T"
    value {
      type: DT_FLOAT
    }
  }
}
node {
  name: "gradients/mean_squared_error/value_grad/Select_1"
  op: "Select"
  input: "mean_squared_error/Greater"
  input: "gradients/mean_squared_error/value_grad/zeros_like"
  input: "gradients/Fill"
  attr {
    key: "T"
    value {
      type: DT_FLOAT
    }
  }
}
node {
  name: "gradients/mean_squared_error/value_grad/tuple/group_deps"
  op: "NoOp"
  input: "^gradients/mean_squared_error/value_grad/Select"
  input: "^gradients/mean_squared_error/value_grad/Select_1"
}
node {
  name: "gradients/mean_squared_error/value_grad/tuple/control_dependency"
  op: "Identity"
  input: "gradients/mean_squared_error/value_grad/Select"
  input: "^gradients/mean_squared_error/value_grad/tuple/group_deps"
  attr {
    key: "T"
    value {
      type: DT_FLOAT
    }
  }
  attr {
    key: "_class"
    value {
      list {
        s: "loc:@gradients/mean_squared_error/value_grad/Select"
      }
    }
  }
}
node {
  name: "gradients/mean_squared_error/value_grad/tuple/control_dependency_1"
  op: "Identity"
  input: "gradients/mean_squared_error/value_grad/Select_1"
  input: "^gradients/mean_squared_error/value_grad/tuple/group_deps"
  attr {
    key: "T"
    value {
      type: DT_FLOAT
    }
  }
  attr {
    key: "_class"
    value {
      list {
        s: "loc:@gradients/mean_squared_error/value_grad/Select_1"
      }
    }
  }
}
node {
  name: "gradients/mean_squared_error/div_grad/Shape"
  op: "Const"
  attr {
    key: "dtype"
    value {
      type: DT_INT32
    }
  }
  attr {
    key: "value"
    value {
      tensor {
        dtype: DT_INT32
        tensor_shape {
          dim {
          }
        }
      }
    }
  }
}
node {
  name: "gradients/mean_squared_error/div_grad/Shape_1"
  op: "Const"
  attr {
    key: "dtype"
    value {
      type: DT_INT32
    }
  }
  attr {
    key: "value"
    value {
      tensor {
        dtype: DT_INT32
        tensor_shape {
          dim {
          }
        }
      }
    }
  }
}
node {
  name: "gradients/mean_squared_error/div_grad/BroadcastGradientArgs"
  op: "BroadcastGradientArgs"
  input: "gradients/mean_squared_error/div_grad/Shape"
  input: "gradients/mean_squared_error/div_grad/Shape_1"
  attr {
    key: "T"
    value {
      type: DT_INT32
    }
  }
}
node {
  name: "gradients/mean_squared_error/div_grad/RealDiv"
  op: "RealDiv"
  input: "gradients/mean_squared_error/value_grad/tuple/control_dependency"
  input: "mean_squared_error/Select"
  attr {
    key: "T"
    value {
      type: DT_FLOAT
    }
  }
}
node {
  name: "gradients/mean_squared_error/div_grad/Sum"
  op: "Sum"
  input: "gradients/mean_squared_error/div_grad/RealDiv"
  input: "gradients/mean_squared_error/div_grad/BroadcastGradientArgs"
  attr {
    key: "T"
    value {
      type: DT_FLOAT
    }
  }
  attr {
    key: "Tidx"
    value {
      type: DT_INT32
    }
  }
  attr {
    key: "keep_dims"
    value {
      b: false
    }
  }
}
node {
  name: "gradients/mean_squared_error/div_grad/Reshape"
  op: "Reshape"
  input: "gradients/mean_squared_error/div_grad/Sum"
  input: "gradients/mean_squared_error/div_grad/Shape"
  attr {
    key: "T"
    value {
      type: DT_FLOAT
    }
  }
  attr {
    key: "Tshape"
    value {
      type: DT_INT32
    }
  }
}
node {
  name: "gradients/mean_squared_error/div_grad/Neg"
  op: "Neg"
  input: "mean_squared_error/Sum_1"
  attr {
    key: "T"
    value {
      type: DT_FLOAT
    }
  }
}
node {
  name: "gradients/mean_squared_error/div_grad/RealDiv_1"
  op: "RealDiv"
  input: "gradients/mean_squared_error/div_grad/Neg"
  input: "mean_squared_error/Select"
  attr {
    key: "T"
    value {
      type: DT_FLOAT
    }
  }
}
node {
  name: "gradients/mean_squared_error/div_grad/RealDiv_2"
  op: "RealDiv"
  input: "gradients/mean_squared_error/div_grad/RealDiv_1"
  input: "mean_squared_error/Select"
  attr {
    key: "T"
    value {
      type: DT_FLOAT
    }
  }
}
node {
  name: "gradients/mean_squared_error/div_grad/mul"
  op: "Mul"
  input: "gradients/mean_squared_error/value_grad/tuple/control_dependency"
  input: "gradients/mean_squared_error/div_grad/RealDiv_2"
  attr {
    key: "T"
    value {
      type: DT_FLOAT
    }
  }
}
node {
  name: "gradients/mean_squared_error/div_grad/Sum_1"
  op: "Sum"
  input: "gradients/mean_squared_error/div_grad/mul"
  input: "gradients/mean_squared_error/div_grad/BroadcastGradientArgs:1"
  attr {
    key: "T"
    value {
      type: DT_FLOAT
    }
  }
  attr {
    key: "Tidx"
    value {
      type: DT_INT32
    }
  }
  attr {
    key: "keep_dims"
    value {
      b: false
    }
  }
}
node {
  name: "gradients/mean_squared_error/div_grad/Reshape_1"
  op: "Reshape"
  input: "gradients/mean_squared_error/div_grad/Sum_1"
  input: "gradients/mean_squared_error/div_grad/Shape_1"
  attr {
    key: "T"
    value {
      type: DT_FLOAT
    }
  }
  attr {
    key: "Tshape"
    value {
      type: DT_INT32
    }
  }
}
node {
  name: "gradients/mean_squared_error/div_grad/tuple/group_deps"
  op: "NoOp"
  input: "^gradients/mean_squared_error/div_grad/Reshape"
  input: "^gradients/mean_squared_error/div_grad/Reshape_1"
}
node {
  name: "gradients/mean_squared_error/div_grad/tuple/control_dependency"
  op: "Identity"
  input: "gradients/mean_squared_error/div_grad/Reshape"
  input: "^gradients/mean_squared_error/div_grad/tuple/group_deps"
  attr {
    key: "T"
    value {
      type: DT_FLOAT
    }
  }
  attr {
    key: "_class"
    value {
      list {
        s: "loc:@gradients/mean_squared_error/div_grad/Reshape"
      }
    }
  }
}
node {
  name: "gradients/mean_squared_error/div_grad/tuple/control_dependency_1"
  op: "Identity"
  input: "gradients/mean_squared_error/div_grad/Reshape_1"
  input: "^gradients/mean_squared_error/div_grad/tuple/group_deps"
  attr {
    key: "T"
    value {
      type: DT_FLOAT
    }
  }
  attr {
    key: "_class"
    value {
      list {
        s: "loc:@gradients/mean_squared_error/div_grad/Reshape_1"
      }
    }
  }
}
node {
  name: "gradients/mean_squared_error/Sum_1_grad/Reshape/shape"
  op: "Const"
  attr {
    key: "dtype"
    value {
      type: DT_INT32
    }
  }
  attr {
    key: "value"
    value {
      tensor {
        dtype: DT_INT32
        tensor_shape {
          dim {
          }
        }
      }
    }
  }
}
node {
  name: "gradients/mean_squared_error/Sum_1_grad/Reshape"
  op: "Reshape"
  input: "gradients/mean_squared_error/div_grad/tuple/control_dependency"
  input: "gradients/mean_squared_error/Sum_1_grad/Reshape/shape"
  attr {
    key: "T"
    value {
      type: DT_FLOAT
    }
  }
  attr {
    key: "Tshape"
    value {
      type: DT_INT32
    }
  }
}
node {
  name: "gradients/mean_squared_error/Sum_1_grad/Tile/multiples"
  op: "Const"
  attr {
    key: "dtype"
    value {
      type: DT_INT32
    }
  }
  attr {
    key: "value"
    value {
      tensor {
        dtype: DT_INT32
        tensor_shape {
          dim {
          }
        }
      }
    }
  }
}
node {
  name: "gradients/mean_squared_error/Sum_1_grad/Tile"
  op: "Tile"
  input: "gradients/mean_squared_error/Sum_1_grad/Reshape"
  input: "gradients/mean_squared_error/Sum_1_grad/Tile/multiples"
  attr {
    key: "T"
    value {
      type: DT_FLOAT
    }
  }
  attr {
    key: "Tmultiples"
    value {
      type: DT_INT32
    }
  }
}
node {
  name: "gradients/mean_squared_error/Select_grad/zeros_like"
  op: "Const"
  attr {
    key: "dtype"
    value {
      type: DT_FLOAT
    }
  }
  attr {
    key: "value"
    value {
      tensor {
        dtype: DT_FLOAT
        tensor_shape {
        }
        float_val: 0.0
      }
    }
  }
}
node {
  name: "gradients/mean_squared_error/Select_grad/Select"
  op: "Select"
  input: "mean_squared_error/Equal"
  input: "gradients/mean_squared_error/div_grad/tuple/control_dependency_1"
  input: "gradients/mean_squared_error/Select_grad/zeros_like"
  attr {
    key: "T"
    value {
      type: DT_FLOAT
    }
  }
}
node {
  name: "gradients/mean_squared_error/Select_grad/Select_1"
  op: "Select"
  input: "mean_squared_error/Equal"
  input: "gradients/mean_squared_error/Select_grad/zeros_like"
  input: "gradients/mean_squared_error/div_grad/tuple/control_dependency_1"
  attr {
    key: "T"
    value {
      type: DT_FLOAT
    }
  }
}
node {
  name: "gradients/mean_squared_error/Select_grad/tuple/group_deps"
  op: "NoOp"
  input: "^gradients/mean_squared_error/Select_grad/Select"
  input: "^gradients/mean_squared_error/Select_grad/Select_1"
}
node {
  name: "gradients/mean_squared_error/Select_grad/tuple/control_dependency"
  op: "Identity"
  input: "gradients/mean_squared_error/Select_grad/Select"
  input: "^gradients/mean_squared_error/Select_grad/tuple/group_deps"
  attr {
    key: "T"
    value {
      type: DT_FLOAT
    }
  }
  attr {
    key: "_class"
    value {
      list {
        s: "loc:@gradients/mean_squared_error/Select_grad/Select"
      }
    }
  }
}
node {
  name: "gradients/mean_squared_error/Select_grad/tuple/control_dependency_1"
  op: "Identity"
  input: "gradients/mean_squared_error/Select_grad/Select_1"
  input: "^gradients/mean_squared_error/Select_grad/tuple/group_deps"
  attr {
    key: "T"
    value {
      type: DT_FLOAT
    }
  }
  attr {
    key: "_class"
    value {
      list {
        s: "loc:@gradients/mean_squared_error/Select_grad/Select_1"
      }
    }
  }
}
node {
  name: "gradients/mean_squared_error/Sum_grad/Reshape/shape"
  op: "Const"
  attr {
    key: "dtype"
    value {
      type: DT_INT32
    }
  }
  attr {
    key: "value"
    value {
      tensor {
        dtype: DT_INT32
        tensor_shape {
          dim {
            size: 2
          }
        }
        tensor_content: "\001\000\000\000\001\000\000\000"
      }
    }
  }
}
node {
  name: "gradients/mean_squared_error/Sum_grad/Reshape"
  op: "Reshape"
  input: "gradients/mean_squared_error/Sum_1_grad/Tile"
  input: "gradients/mean_squared_error/Sum_grad/Reshape/shape"
  attr {
    key: "T"
    value {
      type: DT_FLOAT
    }
  }
  attr {
    key: "Tshape"
    value {
      type: DT_INT32
    }
  }
}
node {
  name: "gradients/mean_squared_error/Sum_grad/Shape"
  op: "Shape"
  input: "mean_squared_error/Mul"
  attr {
    key: "T"
    value {
      type: DT_FLOAT
    }
  }
  attr {
    key: "out_type"
    value {
      type: DT_INT32
    }
  }
}
node {
  name: "gradients/mean_squared_error/Sum_grad/Tile"
  op: "Tile"
  input: "gradients/mean_squared_error/Sum_grad/Reshape"
  input: "gradients/mean_squared_error/Sum_grad/Shape"
  attr {
    key: "T"
    value {
      type: DT_FLOAT
    }
  }
  attr {
    key: "Tmultiples"
    value {
      type: DT_INT32
    }
  }
}
node {
  name: "gradients/mean_squared_error/Mul_grad/Shape"
  op: "Shape"
  input: "mean_squared_error/SquaredDifference"
  attr {
    key: "T"
    value {
      type: DT_FLOAT
    }
  }
  attr {
    key: "out_type"
    value {
      type: DT_INT32
    }
  }
}
node {
  name: "gradients/mean_squared_error/Mul_grad/Shape_1"
  op: "Const"
  attr {
    key: "dtype"
    value {
      type: DT_INT32
    }
  }
  attr {
    key: "value"
    value {
      tensor {
        dtype: DT_INT32
        tensor_shape {
          dim {
          }
        }
      }
    }
  }
}
node {
  name: "gradients/mean_squared_error/Mul_grad/BroadcastGradientArgs"
  op: "BroadcastGradientArgs"
  input: "gradients/mean_squared_error/Mul_grad/Shape"
  input: "gradients/mean_squared_error/Mul_grad/Shape_1"
  attr {
    key: "T"
    value {
      type: DT_INT32
    }
  }
}
node {
  name: "gradients/mean_squared_error/Mul_grad/mul"
  op: "Mul"
  input: "gradients/mean_squared_error/Sum_grad/Tile"
  input: "mean_squared_error/ToFloat_3/x"
  attr {
    key: "T"
    value {
      type: DT_FLOAT
    }
  }
}
node {
  name: "gradients/mean_squared_error/Mul_grad/Sum"
  op: "Sum"
  input: "gradients/mean_squared_error/Mul_grad/mul"
  input: "gradients/mean_squared_error/Mul_grad/BroadcastGradientArgs"
  attr {
    key: "T"
    value {
      type: DT_FLOAT
    }
  }
  attr {
    key: "Tidx"
    value {
      type: DT_INT32
    }
  }
  attr {
    key: "keep_dims"
    value {
      b: false
    }
  }
}
node {
  name: "gradients/mean_squared_error/Mul_grad/Reshape"
  op: "Reshape"
  input: "gradients/mean_squared_error/Mul_grad/Sum"
  input: "gradients/mean_squared_error/Mul_grad/Shape"
  attr {
    key: "T"
    value {
      type: DT_FLOAT
    }
  }
  attr {
    key: "Tshape"
    value {
      type: DT_INT32
    }
  }
}
node {
  name: "gradients/mean_squared_error/Mul_grad/mul_1"
  op: "Mul"
  input: "mean_squared_error/SquaredDifference"
  input: "gradients/mean_squared_error/Sum_grad/Tile"
  attr {
    key: "T"
    value {
      type: DT_FLOAT
    }
  }
}
node {
  name: "gradients/mean_squared_error/Mul_grad/Sum_1"
  op: "Sum"
  input: "gradients/mean_squared_error/Mul_grad/mul_1"
  input: "gradients/mean_squared_error/Mul_grad/BroadcastGradientArgs:1"
  attr {
    key: "T"
    value {
      type: DT_FLOAT
    }
  }
  attr {
    key: "Tidx"
    value {
      type: DT_INT32
    }
  }
  attr {
    key: "keep_dims"
    value {
      b: false
    }
  }
}
node {
  name: "gradients/mean_squared_error/Mul_grad/Reshape_1"
  op: "Reshape"
  input: "gradients/mean_squared_error/Mul_grad/Sum_1"
  input: "gradients/mean_squared_error/Mul_grad/Shape_1"
  attr {
    key: "T"
    value {
      type: DT_FLOAT
    }
  }
  attr {
    key: "Tshape"
    value {
      type: DT_INT32
    }
  }
}
node {
  name: "gradients/mean_squared_error/Mul_grad/tuple/group_deps"
  op: "NoOp"
  input: "^gradients/mean_squared_error/Mul_grad/Reshape"
  input: "^gradients/mean_squared_error/Mul_grad/Reshape_1"
}
node {
  name: "gradients/mean_squared_error/Mul_grad/tuple/control_dependency"
  op: "Identity"
  input: "gradients/mean_squared_error/Mul_grad/Reshape"
  input: "^gradients/mean_squared_error/Mul_grad/tuple/group_deps"
  attr {
    key: "T"
    value {
      type: DT_FLOAT
    }
  }
  attr {
    key: "_class"
    value {
      list {
        s: "loc:@gradients/mean_squared_error/Mul_grad/Reshape"
      }
    }
  }
}
node {
  name: "gradients/mean_squared_error/Mul_grad/tuple/control_dependency_1"
  op: "Identity"
  input: "gradients/mean_squared_error/Mul_grad/Reshape_1"
  input: "^gradients/mean_squared_error/Mul_grad/tuple/group_deps"
  attr {
    key: "T"
    value {
      type: DT_FLOAT
    }
  }
  attr {
    key: "_class"
    value {
      list {
        s: "loc:@gradients/mean_squared_error/Mul_grad/Reshape_1"
      }
    }
  }
}
node {
  name: "gradients/mean_squared_error/num_present_grad/Reshape/shape"
  op: "Const"
  attr {
    key: "dtype"
    value {
      type: DT_INT32
    }
  }
  attr {
    key: "value"
    value {
      tensor {
        dtype: DT_INT32
        tensor_shape {
          dim {
            size: 2
          }
        }
        tensor_content: "\001\000\000\000\001\000\000\000"
      }
    }
  }
}
node {
  name: "gradients/mean_squared_error/num_present_grad/Reshape"
  op: "Reshape"
  input: "gradients/mean_squared_error/Select_grad/tuple/control_dependency_1"
  input: "gradients/mean_squared_error/num_present_grad/Reshape/shape"
  attr {
    key: "T"
    value {
      type: DT_FLOAT
    }
  }
  attr {
    key: "Tshape"
    value {
      type: DT_INT32
    }
  }
}
node {
  name: "gradients/mean_squared_error/num_present_grad/Shape"
  op: "Shape"
  input: "mean_squared_error/num_present/broadcast_weights"
  attr {
    key: "T"
    value {
      type: DT_FLOAT
    }
  }
  attr {
    key: "out_type"
    value {
      type: DT_INT32
    }
  }
}
node {
  name: "gradients/mean_squared_error/num_present_grad/Tile"
  op: "Tile"
  input: "gradients/mean_squared_error/num_present_grad/Reshape"
  input: "gradients/mean_squared_error/num_present_grad/Shape"
  attr {
    key: "T"
    value {
      type: DT_FLOAT
    }
  }
  attr {
    key: "Tmultiples"
    value {
      type: DT_INT32
    }
  }
}
node {
  name: "gradients/mean_squared_error/num_present/broadcast_weights_grad/Shape"
  op: "Const"
  attr {
    key: "dtype"
    value {
      type: DT_INT32
    }
  }
  attr {
    key: "value"
    value {
      tensor {
        dtype: DT_INT32
        tensor_shape {
          dim {
          }
        }
      }
    }
  }
}
node {
  name: "gradients/mean_squared_error/num_present/broadcast_weights_grad/Shape_1"
  op: "Shape"
  input: "mean_squared_error/num_present/broadcast_weights/ones_like"
  attr {
    key: "T"
    value {
      type: DT_FLOAT
    }
  }
  attr {
    key: "out_type"
    value {
      type: DT_INT32
    }
  }
}
node {
  name: "gradients/mean_squared_error/num_present/broadcast_weights_grad/BroadcastGradientArgs"
  op: "BroadcastGradientArgs"
  input: "gradients/mean_squared_error/num_present/broadcast_weights_grad/Shape"
  input: "gradients/mean_squared_error/num_present/broadcast_weights_grad/Shape_1"
  attr {
    key: "T"
    value {
      type: DT_INT32
    }
  }
}
node {
  name: "gradients/mean_squared_error/num_present/broadcast_weights_grad/mul"
  op: "Mul"
  input: "gradients/mean_squared_error/num_present_grad/Tile"
  input: "mean_squared_error/num_present/broadcast_weights/ones_like"
  attr {
    key: "T"
    value {
      type: DT_FLOAT
    }
  }
}
node {
  name: "gradients/mean_squared_error/num_present/broadcast_weights_grad/Sum"
  op: "Sum"
  input: "gradients/mean_squared_error/num_present/broadcast_weights_grad/mul"
  input: "gradients/mean_squared_error/num_present/broadcast_weights_grad/BroadcastGradientArgs"
  attr {
    key: "T"
    value {
      type: DT_FLOAT
    }
  }
  attr {
    key: "Tidx"
    value {
      type: DT_INT32
    }
  }
  attr {
    key: "keep_dims"
    value {
      b: false
    }
  }
}
node {
  name: "gradients/mean_squared_error/num_present/broadcast_weights_grad/Reshape"
  op: "Reshape"
  input: "gradients/mean_squared_error/num_present/broadcast_weights_grad/Sum"
  input: "gradients/mean_squared_error/num_present/broadcast_weights_grad/Shape"
  attr {
    key: "T"
    value {
      type: DT_FLOAT
    }
  }
  attr {
    key: "Tshape"
    value {
      type: DT_INT32
    }
  }
}
node {
  name: "gradients/mean_squared_error/num_present/broadcast_weights_grad/mul_1"
  op: "Mul"
  input: "mean_squared_error/num_present/Select"
  input: "gradients/mean_squared_error/num_present_grad/Tile"
  attr {
    key: "T"
    value {
      type: DT_FLOAT
    }
  }
}
node {
  name: "gradients/mean_squared_error/num_present/broadcast_weights_grad/Sum_1"
  op: "Sum"
  input: "gradients/mean_squared_error/num_present/broadcast_weights_grad/mul_1"
  input: "gradients/mean_squared_error/num_present/broadcast_weights_grad/BroadcastGradientArgs:1"
  attr {
    key: "T"
    value {
      type: DT_FLOAT
    }
  }
  attr {
    key: "Tidx"
    value {
      type: DT_INT32
    }
  }
  attr {
    key: "keep_dims"
    value {
      b: false
    }
  }
}
node {
  name: "gradients/mean_squared_error/num_present/broadcast_weights_grad/Reshape_1"
  op: "Reshape"
  input: "gradients/mean_squared_error/num_present/broadcast_weights_grad/Sum_1"
  input: "gradients/mean_squared_error/num_present/broadcast_weights_grad/Shape_1"
  attr {
    key: "T"
    value {
      type: DT_FLOAT
    }
  }
  attr {
    key: "Tshape"
    value {
      type: DT_INT32
    }
  }
}
node {
  name: "gradients/mean_squared_error/num_present/broadcast_weights_grad/tuple/group_deps"
  op: "NoOp"
  input: "^gradients/mean_squared_error/num_present/broadcast_weights_grad/Reshape"
  input: "^gradients/mean_squared_error/num_present/broadcast_weights_grad/Reshape_1"
}
node {
  name: "gradients/mean_squared_error/num_present/broadcast_weights_grad/tuple/control_dependency"
  op: "Identity"
  input: "gradients/mean_squared_error/num_present/broadcast_weights_grad/Reshape"
  input: "^gradients/mean_squared_error/num_present/broadcast_weights_grad/tuple/group_deps"
  attr {
    key: "T"
    value {
      type: DT_FLOAT
    }
  }
  attr {
    key: "_class"
    value {
      list {
        s: "loc:@gradients/mean_squared_error/num_present/broadcast_weights_grad/Reshape"
      }
    }
  }
}
node {
  name: "gradients/mean_squared_error/num_present/broadcast_weights_grad/tuple/control_dependency_1"
  op: "Identity"
  input: "gradients/mean_squared_error/num_present/broadcast_weights_grad/Reshape_1"
  input: "^gradients/mean_squared_error/num_present/broadcast_weights_grad/tuple/group_deps"
  attr {
    key: "T"
    value {
      type: DT_FLOAT
    }
  }
  attr {
    key: "_class"
    value {
      list {
        s: "loc:@gradients/mean_squared_error/num_present/broadcast_weights_grad/Reshape_1"
      }
    }
  }
}
node {
  name: "gradients/mean_squared_error/num_present/broadcast_weights/ones_like_grad/Const"
  op: "Const"
  attr {
    key: "dtype"
    value {
      type: DT_INT32
    }
  }
  attr {
    key: "value"
    value {
      tensor {
        dtype: DT_INT32
        tensor_shape {
          dim {
            size: 2
          }
        }
        tensor_content: "\000\000\000\000\001\000\000\000"
      }
    }
  }
}
node {
  name: "gradients/mean_squared_error/num_present/broadcast_weights/ones_like_grad/Sum"
  op: "Sum"
  input: "gradients/mean_squared_error/num_present/broadcast_weights_grad/tuple/control_dependency_1"
  input: "gradients/mean_squared_error/num_present/broadcast_weights/ones_like_grad/Const"
  attr {
    key: "T"
    value {
      type: DT_FLOAT
    }
  }
  attr {
    key: "Tidx"
    value {
      type: DT_INT32
    }
  }
  attr {
    key: "keep_dims"
    value {
      b: false
    }
  }
}
node {
  name: "gradients/mean_squared_error/SquaredDifference_grad/Shape"
  op: "Shape"
  input: "Placeholder"
  attr {
    key: "T"
    value {
      type: DT_FLOAT
    }
  }
  attr {
    key: "out_type"
    value {
      type: DT_INT32
    }
  }
}
node {
  name: "gradients/mean_squared_error/SquaredDifference_grad/Shape_1"
  op: "Shape"
  input: "output/Maximum"
  attr {
    key: "T"
    value {
      type: DT_FLOAT
    }
  }
  attr {
    key: "out_type"
    value {
      type: DT_INT32
    }
  }
}
node {
  name: "gradients/mean_squared_error/SquaredDifference_grad/BroadcastGradientArgs"
  op: "BroadcastGradientArgs"
  input: "gradients/mean_squared_error/SquaredDifference_grad/Shape"
  input: "gradients/mean_squared_error/SquaredDifference_grad/Shape_1"
  attr {
    key: "T"
    value {
      type: DT_INT32
    }
  }
}
node {
  name: "gradients/mean_squared_error/SquaredDifference_grad/scalar"
  op: "Const"
  input: "^gradients/mean_squared_error/Mul_grad/tuple/control_dependency"
  attr {
    key: "dtype"
    value {
      type: DT_FLOAT
    }
  }
  attr {
    key: "value"
    value {
      tensor {
        dtype: DT_FLOAT
        tensor_shape {
        }
        float_val: 2.0
      }
    }
  }
}
node {
  name: "gradients/mean_squared_error/SquaredDifference_grad/mul"
  op: "Mul"
  input: "gradients/mean_squared_error/SquaredDifference_grad/scalar"
  input: "gradients/mean_squared_error/Mul_grad/tuple/control_dependency"
  attr {
    key: "T"
    value {
      type: DT_FLOAT
    }
  }
}
node {
  name: "gradients/mean_squared_error/SquaredDifference_grad/sub"
  op: "Sub"
  input: "Placeholder"
  input: "output/Maximum"
  input: "^gradients/mean_squared_error/Mul_grad/tuple/control_dependency"
  attr {
    key: "T"
    value {
      type: DT_FLOAT
    }
  }
}
node {
  name: "gradients/mean_squared_error/SquaredDifference_grad/mul_1"
  op: "Mul"
  input: "gradients/mean_squared_error/SquaredDifference_grad/mul"
  input: "gradients/mean_squared_error/SquaredDifference_grad/sub"
  attr {
    key: "T"
    value {
      type: DT_FLOAT
    }
  }
}
node {
  name: "gradients/mean_squared_error/SquaredDifference_grad/Sum"
  op: "Sum"
  input: "gradients/mean_squared_error/SquaredDifference_grad/mul_1"
  input: "gradients/mean_squared_error/SquaredDifference_grad/BroadcastGradientArgs"
  attr {
    key: "T"
    value {
      type: DT_FLOAT
    }
  }
  attr {
    key: "Tidx"
    value {
      type: DT_INT32
    }
  }
  attr {
    key: "keep_dims"
    value {
      b: false
    }
  }
}
node {
  name: "gradients/mean_squared_error/SquaredDifference_grad/Reshape"
  op: "Reshape"
  input: "gradients/mean_squared_error/SquaredDifference_grad/Sum"
  input: "gradients/mean_squared_error/SquaredDifference_grad/Shape"
  attr {
    key: "T"
    value {
      type: DT_FLOAT
    }
  }
  attr {
    key: "Tshape"
    value {
      type: DT_INT32
    }
  }
}
node {
  name: "gradients/mean_squared_error/SquaredDifference_grad/Sum_1"
  op: "Sum"
  input: "gradients/mean_squared_error/SquaredDifference_grad/mul_1"
  input: "gradients/mean_squared_error/SquaredDifference_grad/BroadcastGradientArgs:1"
  attr {
    key: "T"
    value {
      type: DT_FLOAT
    }
  }
  attr {
    key: "Tidx"
    value {
      type: DT_INT32
    }
  }
  attr {
    key: "keep_dims"
    value {
      b: false
    }
  }
}
node {
  name: "gradients/mean_squared_error/SquaredDifference_grad/Reshape_1"
  op: "Reshape"
  input: "gradients/mean_squared_error/SquaredDifference_grad/Sum_1"
  input: "gradients/mean_squared_error/SquaredDifference_grad/Shape_1"
  attr {
    key: "T"
    value {
      type: DT_FLOAT
    }
  }
  attr {
    key: "Tshape"
    value {
      type: DT_INT32
    }
  }
}
node {
  name: "gradients/mean_squared_error/SquaredDifference_grad/Neg"
  op: "Neg"
  input: "gradients/mean_squared_error/SquaredDifference_grad/Reshape_1"
  attr {
    key: "T"
    value {
      type: DT_FLOAT
    }
  }
}
node {
  name: "gradients/mean_squared_error/SquaredDifference_grad/tuple/group_deps"
  op: "NoOp"
  input: "^gradients/mean_squared_error/SquaredDifference_grad/Reshape"
  input: "^gradients/mean_squared_error/SquaredDifference_grad/Neg"
}
node {
  name: "gradients/mean_squared_error/SquaredDifference_grad/tuple/control_dependency"
  op: "Identity"
  input: "gradients/mean_squared_error/SquaredDifference_grad/Reshape"
  input: "^gradients/mean_squared_error/SquaredDifference_grad/tuple/group_deps"
  attr {
    key: "T"
    value {
      type: DT_FLOAT
    }
  }
  attr {
    key: "_class"
    value {
      list {
        s: "loc:@gradients/mean_squared_error/SquaredDifference_grad/Reshape"
      }
    }
  }
}
node {
  name: "gradients/mean_squared_error/SquaredDifference_grad/tuple/control_dependency_1"
  op: "Identity"
  input: "gradients/mean_squared_error/SquaredDifference_grad/Neg"
  input: "^gradients/mean_squared_error/SquaredDifference_grad/tuple/group_deps"
  attr {
    key: "T"
    value {
      type: DT_FLOAT
    }
  }
  attr {
    key: "_class"
    value {
      list {
        s: "loc:@gradients/mean_squared_error/SquaredDifference_grad/Neg"
      }
    }
  }
}
node {
  name: "gradients/output/Maximum_grad/Shape"
  op: "Shape"
  input: "output/mul"
  attr {
    key: "T"
    value {
      type: DT_FLOAT
    }
  }
  attr {
    key: "out_type"
    value {
      type: DT_INT32
    }
  }
}
node {
  name: "gradients/output/Maximum_grad/Shape_1"
  op: "Shape"
  input: "fully_connected_3/Relu"
  attr {
    key: "T"
    value {
      type: DT_FLOAT
    }
  }
  attr {
    key: "out_type"
    value {
      type: DT_INT32
    }
  }
}
node {
  name: "gradients/output/Maximum_grad/Shape_2"
  op: "Shape"
  input: "gradients/mean_squared_error/SquaredDifference_grad/tuple/control_dependency_1"
  attr {
    key: "T"
    value {
      type: DT_FLOAT
    }
  }
  attr {
    key: "out_type"
    value {
      type: DT_INT32
    }
  }
}
node {
  name: "gradients/output/Maximum_grad/zeros/Const"
  op: "Const"
  attr {
    key: "dtype"
    value {
      type: DT_FLOAT
    }
  }
  attr {
    key: "value"
    value {
      tensor {
        dtype: DT_FLOAT
        tensor_shape {
        }
        float_val: 0.0
      }
    }
  }
}
node {
  name: "gradients/output/Maximum_grad/zeros"
  op: "Fill"
  input: "gradients/output/Maximum_grad/Shape_2"
  input: "gradients/output/Maximum_grad/zeros/Const"
  attr {
    key: "T"
    value {
      type: DT_FLOAT
    }
  }
}
node {
  name: "gradients/output/Maximum_grad/GreaterEqual"
  op: "GreaterEqual"
  input: "output/mul"
  input: "fully_connected_3/Relu"
  attr {
    key: "T"
    value {
      type: DT_FLOAT
    }
  }
}
node {
  name: "gradients/output/Maximum_grad/BroadcastGradientArgs"
  op: "BroadcastGradientArgs"
  input: "gradients/output/Maximum_grad/Shape"
  input: "gradients/output/Maximum_grad/Shape_1"
  attr {
    key: "T"
    value {
      type: DT_INT32
    }
  }
}
node {
  name: "gradients/output/Maximum_grad/Select"
  op: "Select"
  input: "gradients/output/Maximum_grad/GreaterEqual"
  input: "gradients/mean_squared_error/SquaredDifference_grad/tuple/control_dependency_1"
  input: "gradients/output/Maximum_grad/zeros"
  attr {
    key: "T"
    value {
      type: DT_FLOAT
    }
  }
}
node {
  name: "gradients/output/Maximum_grad/Select_1"
  op: "Select"
  input: "gradients/output/Maximum_grad/GreaterEqual"
  input: "gradients/output/Maximum_grad/zeros"
  input: "gradients/mean_squared_error/SquaredDifference_grad/tuple/control_dependency_1"
  attr {
    key: "T"
    value {
      type: DT_FLOAT
    }
  }
}
node {
  name: "gradients/output/Maximum_grad/Sum"
  op: "Sum"
  input: "gradients/output/Maximum_grad/Select"
  input: "gradients/output/Maximum_grad/BroadcastGradientArgs"
  attr {
    key: "T"
    value {
      type: DT_FLOAT
    }
  }
  attr {
    key: "Tidx"
    value {
      type: DT_INT32
    }
  }
  attr {
    key: "keep_dims"
    value {
      b: false
    }
  }
}
node {
  name: "gradients/output/Maximum_grad/Reshape"
  op: "Reshape"
  input: "gradients/output/Maximum_grad/Sum"
  input: "gradients/output/Maximum_grad/Shape"
  attr {
    key: "T"
    value {
      type: DT_FLOAT
    }
  }
  attr {
    key: "Tshape"
    value {
      type: DT_INT32
    }
  }
}
node {
  name: "gradients/output/Maximum_grad/Sum_1"
  op: "Sum"
  input: "gradients/output/Maximum_grad/Select_1"
  input: "gradients/output/Maximum_grad/BroadcastGradientArgs:1"
  attr {
    key: "T"
    value {
      type: DT_FLOAT
    }
  }
  attr {
    key: "Tidx"
    value {
      type: DT_INT32
    }
  }
  attr {
    key: "keep_dims"
    value {
      b: false
    }
  }
}
node {
  name: "gradients/output/Maximum_grad/Reshape_1"
  op: "Reshape"
  input: "gradients/output/Maximum_grad/Sum_1"
  input: "gradients/output/Maximum_grad/Shape_1"
  attr {
    key: "T"
    value {
      type: DT_FLOAT
    }
  }
  attr {
    key: "Tshape"
    value {
      type: DT_INT32
    }
  }
}
node {
  name: "gradients/output/Maximum_grad/tuple/group_deps"
  op: "NoOp"
  input: "^gradients/output/Maximum_grad/Reshape"
  input: "^gradients/output/Maximum_grad/Reshape_1"
}
node {
  name: "gradients/output/Maximum_grad/tuple/control_dependency"
  op: "Identity"
  input: "gradients/output/Maximum_grad/Reshape"
  input: "^gradients/output/Maximum_grad/tuple/group_deps"
  attr {
    key: "T"
    value {
      type: DT_FLOAT
    }
  }
  attr {
    key: "_class"
    value {
      list {
        s: "loc:@gradients/output/Maximum_grad/Reshape"
      }
    }
  }
}
node {
  name: "gradients/output/Maximum_grad/tuple/control_dependency_1"
  op: "Identity"
  input: "gradients/output/Maximum_grad/Reshape_1"
  input: "^gradients/output/Maximum_grad/tuple/group_deps"
  attr {
    key: "T"
    value {
      type: DT_FLOAT
    }
  }
  attr {
    key: "_class"
    value {
      list {
        s: "loc:@gradients/output/Maximum_grad/Reshape_1"
      }
    }
  }
}
node {
  name: "gradients/output/mul_grad/Shape"
  op: "Const"
  attr {
    key: "dtype"
    value {
      type: DT_INT32
    }
  }
  attr {
    key: "value"
    value {
      tensor {
        dtype: DT_INT32
        tensor_shape {
          dim {
          }
        }
      }
    }
  }
}
node {
  name: "gradients/output/mul_grad/Shape_1"
  op: "Shape"
  input: "fully_connected_3/Relu"
  attr {
    key: "T"
    value {
      type: DT_FLOAT
    }
  }
  attr {
    key: "out_type"
    value {
      type: DT_INT32
    }
  }
}
node {
  name: "gradients/output/mul_grad/BroadcastGradientArgs"
  op: "BroadcastGradientArgs"
  input: "gradients/output/mul_grad/Shape"
  input: "gradients/output/mul_grad/Shape_1"
  attr {
    key: "T"
    value {
      type: DT_INT32
    }
  }
}
node {
  name: "gradients/output/mul_grad/mul"
  op: "Mul"
  input: "gradients/output/Maximum_grad/tuple/control_dependency"
  input: "fully_connected_3/Relu"
  attr {
    key: "T"
    value {
      type: DT_FLOAT
    }
  }
}
node {
  name: "gradients/output/mul_grad/Sum"
  op: "Sum"
  input: "gradients/output/mul_grad/mul"
  input: "gradients/output/mul_grad/BroadcastGradientArgs"
  attr {
    key: "T"
    value {
      type: DT_FLOAT
    }
  }
  attr {
    key: "Tidx"
    value {
      type: DT_INT32
    }
  }
  attr {
    key: "keep_dims"
    value {
      b: false
    }
  }
}
node {
  name: "gradients/output/mul_grad/Reshape"
  op: "Reshape"
  input: "gradients/output/mul_grad/Sum"
  input: "gradients/output/mul_grad/Shape"
  attr {
    key: "T"
    value {
      type: DT_FLOAT
    }
  }
  attr {
    key: "Tshape"
    value {
      type: DT_INT32
    }
  }
}
node {
  name: "gradients/output/mul_grad/mul_1"
  op: "Mul"
  input: "output/alpha"
  input: "gradients/output/Maximum_grad/tuple/control_dependency"
  attr {
    key: "T"
    value {
      type: DT_FLOAT
    }
  }
}
node {
  name: "gradients/output/mul_grad/Sum_1"
  op: "Sum"
  input: "gradients/output/mul_grad/mul_1"
  input: "gradients/output/mul_grad/BroadcastGradientArgs:1"
  attr {
    key: "T"
    value {
      type: DT_FLOAT
    }
  }
  attr {
    key: "Tidx"
    value {
      type: DT_INT32
    }
  }
  attr {
    key: "keep_dims"
    value {
      b: false
    }
  }
}
node {
  name: "gradients/output/mul_grad/Reshape_1"
  op: "Reshape"
  input: "gradients/output/mul_grad/Sum_1"
  input: "gradients/output/mul_grad/Shape_1"
  attr {
    key: "T"
    value {
      type: DT_FLOAT
    }
  }
  attr {
    key: "Tshape"
    value {
      type: DT_INT32
    }
  }
}
node {
  name: "gradients/output/mul_grad/tuple/group_deps"
  op: "NoOp"
  input: "^gradients/output/mul_grad/Reshape"
  input: "^gradients/output/mul_grad/Reshape_1"
}
node {
  name: "gradients/output/mul_grad/tuple/control_dependency"
  op: "Identity"
  input: "gradients/output/mul_grad/Reshape"
  input: "^gradients/output/mul_grad/tuple/group_deps"
  attr {
    key: "T"
    value {
      type: DT_FLOAT
    }
  }
  attr {
    key: "_class"
    value {
      list {
        s: "loc:@gradients/output/mul_grad/Reshape"
      }
    }
  }
}
node {
  name: "gradients/output/mul_grad/tuple/control_dependency_1"
  op: "Identity"
  input: "gradients/output/mul_grad/Reshape_1"
  input: "^gradients/output/mul_grad/tuple/group_deps"
  attr {
    key: "T"
    value {
      type: DT_FLOAT
    }
  }
  attr {
    key: "_class"
    value {
      list {
        s: "loc:@gradients/output/mul_grad/Reshape_1"
      }
    }
  }
}
node {
  name: "gradients/AddN"
  op: "AddN"
  input: "gradients/output/Maximum_grad/tuple/control_dependency_1"
  input: "gradients/output/mul_grad/tuple/control_dependency_1"
  attr {
    key: "N"
    value {
      i: 2
    }
  }
  attr {
    key: "T"
    value {
      type: DT_FLOAT
    }
  }
  attr {
    key: "_class"
    value {
      list {
        s: "loc:@gradients/output/Maximum_grad/Reshape_1"
      }
    }
  }
}
node {
  name: "gradients/fully_connected_3/Relu_grad/ReluGrad"
  op: "ReluGrad"
  input: "gradients/AddN"
  input: "fully_connected_3/Relu"
  attr {
    key: "T"
    value {
      type: DT_FLOAT
    }
  }
}
node {
  name: "gradients/fully_connected_3/BiasAdd_grad/BiasAddGrad"
  op: "BiasAddGrad"
  input: "gradients/fully_connected_3/Relu_grad/ReluGrad"
  attr {
    key: "T"
    value {
      type: DT_FLOAT
    }
  }
  attr {
    key: "data_format"
    value {
      s: "NHWC"
    }
  }
}
node {
  name: "gradients/fully_connected_3/BiasAdd_grad/tuple/group_deps"
  op: "NoOp"
  input: "^gradients/fully_connected_3/Relu_grad/ReluGrad"
  input: "^gradients/fully_connected_3/BiasAdd_grad/BiasAddGrad"
}
node {
  name: "gradients/fully_connected_3/BiasAdd_grad/tuple/control_dependency"
  op: "Identity"
  input: "gradients/fully_connected_3/Relu_grad/ReluGrad"
  input: "^gradients/fully_connected_3/BiasAdd_grad/tuple/group_deps"
  attr {
    key: "T"
    value {
      type: DT_FLOAT
    }
  }
  attr {
    key: "_class"
    value {
      list {
        s: "loc:@gradients/fully_connected_3/Relu_grad/ReluGrad"
      }
    }
  }
}
node {
  name: "gradients/fully_connected_3/BiasAdd_grad/tuple/control_dependency_1"
  op: "Identity"
  input: "gradients/fully_connected_3/BiasAdd_grad/BiasAddGrad"
  input: "^gradients/fully_connected_3/BiasAdd_grad/tuple/group_deps"
  attr {
    key: "T"
    value {
      type: DT_FLOAT
    }
  }
  attr {
    key: "_class"
    value {
      list {
        s: "loc:@gradients/fully_connected_3/BiasAdd_grad/BiasAddGrad"
      }
    }
  }
}
node {
  name: "gradients/fully_connected_3/MatMul_grad/MatMul"
  op: "MatMul"
  input: "gradients/fully_connected_3/BiasAdd_grad/tuple/control_dependency"
  input: "fully_connected_3/weights/read"
  attr {
    key: "T"
    value {
      type: DT_FLOAT
    }
  }
  attr {
    key: "transpose_a"
    value {
      b: false
    }
  }
  attr {
    key: "transpose_b"
    value {
      b: true
    }
  }
}
node {
  name: "gradients/fully_connected_3/MatMul_grad/MatMul_1"
  op: "MatMul"
  input: "dropout_2/mul"
  input: "gradients/fully_connected_3/BiasAdd_grad/tuple/control_dependency"
  attr {
    key: "T"
    value {
      type: DT_FLOAT
    }
  }
  attr {
    key: "transpose_a"
    value {
      b: true
    }
  }
  attr {
    key: "transpose_b"
    value {
      b: false
    }
  }
}
node {
  name: "gradients/fully_connected_3/MatMul_grad/tuple/group_deps"
  op: "NoOp"
  input: "^gradients/fully_connected_3/MatMul_grad/MatMul"
  input: "^gradients/fully_connected_3/MatMul_grad/MatMul_1"
}
node {
  name: "gradients/fully_connected_3/MatMul_grad/tuple/control_dependency"
  op: "Identity"
  input: "gradients/fully_connected_3/MatMul_grad/MatMul"
  input: "^gradients/fully_connected_3/MatMul_grad/tuple/group_deps"
  attr {
    key: "T"
    value {
      type: DT_FLOAT
    }
  }
  attr {
    key: "_class"
    value {
      list {
        s: "loc:@gradients/fully_connected_3/MatMul_grad/MatMul"
      }
    }
  }
}
node {
  name: "gradients/fully_connected_3/MatMul_grad/tuple/control_dependency_1"
  op: "Identity"
  input: "gradients/fully_connected_3/MatMul_grad/MatMul_1"
  input: "^gradients/fully_connected_3/MatMul_grad/tuple/group_deps"
  attr {
    key: "T"
    value {
      type: DT_FLOAT
    }
  }
  attr {
    key: "_class"
    value {
      list {
        s: "loc:@gradients/fully_connected_3/MatMul_grad/MatMul_1"
      }
    }
  }
}
node {
  name: "gradients/dropout_2/mul_grad/Shape"
  op: "Shape"
  input: "dropout_2/div"
  attr {
    key: "T"
    value {
      type: DT_FLOAT
    }
  }
  attr {
    key: "out_type"
    value {
      type: DT_INT32
    }
  }
}
node {
  name: "gradients/dropout_2/mul_grad/Shape_1"
  op: "Shape"
  input: "dropout_2/Floor"
  attr {
    key: "T"
    value {
      type: DT_FLOAT
    }
  }
  attr {
    key: "out_type"
    value {
      type: DT_INT32
    }
  }
}
node {
  name: "gradients/dropout_2/mul_grad/BroadcastGradientArgs"
  op: "BroadcastGradientArgs"
  input: "gradients/dropout_2/mul_grad/Shape"
  input: "gradients/dropout_2/mul_grad/Shape_1"
  attr {
    key: "T"
    value {
      type: DT_INT32
    }
  }
}
node {
  name: "gradients/dropout_2/mul_grad/mul"
  op: "Mul"
  input: "gradients/fully_connected_3/MatMul_grad/tuple/control_dependency"
  input: "dropout_2/Floor"
  attr {
    key: "T"
    value {
      type: DT_FLOAT
    }
  }
}
node {
  name: "gradients/dropout_2/mul_grad/Sum"
  op: "Sum"
  input: "gradients/dropout_2/mul_grad/mul"
  input: "gradients/dropout_2/mul_grad/BroadcastGradientArgs"
  attr {
    key: "T"
    value {
      type: DT_FLOAT
    }
  }
  attr {
    key: "Tidx"
    value {
      type: DT_INT32
    }
  }
  attr {
    key: "keep_dims"
    value {
      b: false
    }
  }
}
node {
  name: "gradients/dropout_2/mul_grad/Reshape"
  op: "Reshape"
  input: "gradients/dropout_2/mul_grad/Sum"
  input: "gradients/dropout_2/mul_grad/Shape"
  attr {
    key: "T"
    value {
      type: DT_FLOAT
    }
  }
  attr {
    key: "Tshape"
    value {
      type: DT_INT32
    }
  }
}
node {
  name: "gradients/dropout_2/mul_grad/mul_1"
  op: "Mul"
  input: "dropout_2/div"
  input: "gradients/fully_connected_3/MatMul_grad/tuple/control_dependency"
  attr {
    key: "T"
    value {
      type: DT_FLOAT
    }
  }
}
node {
  name: "gradients/dropout_2/mul_grad/Sum_1"
  op: "Sum"
  input: "gradients/dropout_2/mul_grad/mul_1"
  input: "gradients/dropout_2/mul_grad/BroadcastGradientArgs:1"
  attr {
    key: "T"
    value {
      type: DT_FLOAT
    }
  }
  attr {
    key: "Tidx"
    value {
      type: DT_INT32
    }
  }
  attr {
    key: "keep_dims"
    value {
      b: false
    }
  }
}
node {
  name: "gradients/dropout_2/mul_grad/Reshape_1"
  op: "Reshape"
  input: "gradients/dropout_2/mul_grad/Sum_1"
  input: "gradients/dropout_2/mul_grad/Shape_1"
  attr {
    key: "T"
    value {
      type: DT_FLOAT
    }
  }
  attr {
    key: "Tshape"
    value {
      type: DT_INT32
    }
  }
}
node {
  name: "gradients/dropout_2/mul_grad/tuple/group_deps"
  op: "NoOp"
  input: "^gradients/dropout_2/mul_grad/Reshape"
  input: "^gradients/dropout_2/mul_grad/Reshape_1"
}
node {
  name: "gradients/dropout_2/mul_grad/tuple/control_dependency"
  op: "Identity"
  input: "gradients/dropout_2/mul_grad/Reshape"
  input: "^gradients/dropout_2/mul_grad/tuple/group_deps"
  attr {
    key: "T"
    value {
      type: DT_FLOAT
    }
  }
  attr {
    key: "_class"
    value {
      list {
        s: "loc:@gradients/dropout_2/mul_grad/Reshape"
      }
    }
  }
}
node {
  name: "gradients/dropout_2/mul_grad/tuple/control_dependency_1"
  op: "Identity"
  input: "gradients/dropout_2/mul_grad/Reshape_1"
  input: "^gradients/dropout_2/mul_grad/tuple/group_deps"
  attr {
    key: "T"
    value {
      type: DT_FLOAT
    }
  }
  attr {
    key: "_class"
    value {
      list {
        s: "loc:@gradients/dropout_2/mul_grad/Reshape_1"
      }
    }
  }
}
node {
  name: "gradients/dropout_2/div_grad/Shape"
  op: "Shape"
  input: "LeakyRelu_2/Maximum"
  attr {
    key: "T"
    value {
      type: DT_FLOAT
    }
  }
  attr {
    key: "out_type"
    value {
      type: DT_INT32
    }
  }
}
node {
  name: "gradients/dropout_2/div_grad/Shape_1"
  op: "Const"
  attr {
    key: "dtype"
    value {
      type: DT_INT32
    }
  }
  attr {
    key: "value"
    value {
      tensor {
        dtype: DT_INT32
        tensor_shape {
          dim {
          }
        }
      }
    }
  }
}
node {
  name: "gradients/dropout_2/div_grad/BroadcastGradientArgs"
  op: "BroadcastGradientArgs"
  input: "gradients/dropout_2/div_grad/Shape"
  input: "gradients/dropout_2/div_grad/Shape_1"
  attr {
    key: "T"
    value {
      type: DT_INT32
    }
  }
}
node {
  name: "gradients/dropout_2/div_grad/RealDiv"
  op: "RealDiv"
  input: "gradients/dropout_2/mul_grad/tuple/control_dependency"
  input: "dropout_2/keep_prob"
  attr {
    key: "T"
    value {
      type: DT_FLOAT
    }
  }
}
node {
  name: "gradients/dropout_2/div_grad/Sum"
  op: "Sum"
  input: "gradients/dropout_2/div_grad/RealDiv"
  input: "gradients/dropout_2/div_grad/BroadcastGradientArgs"
  attr {
    key: "T"
    value {
      type: DT_FLOAT
    }
  }
  attr {
    key: "Tidx"
    value {
      type: DT_INT32
    }
  }
  attr {
    key: "keep_dims"
    value {
      b: false
    }
  }
}
node {
  name: "gradients/dropout_2/div_grad/Reshape"
  op: "Reshape"
  input: "gradients/dropout_2/div_grad/Sum"
  input: "gradients/dropout_2/div_grad/Shape"
  attr {
    key: "T"
    value {
      type: DT_FLOAT
    }
  }
  attr {
    key: "Tshape"
    value {
      type: DT_INT32
    }
  }
}
node {
  name: "gradients/dropout_2/div_grad/Neg"
  op: "Neg"
  input: "LeakyRelu_2/Maximum"
  attr {
    key: "T"
    value {
      type: DT_FLOAT
    }
  }
}
node {
  name: "gradients/dropout_2/div_grad/RealDiv_1"
  op: "RealDiv"
  input: "gradients/dropout_2/div_grad/Neg"
  input: "dropout_2/keep_prob"
  attr {
    key: "T"
    value {
      type: DT_FLOAT
    }
  }
}
node {
  name: "gradients/dropout_2/div_grad/RealDiv_2"
  op: "RealDiv"
  input: "gradients/dropout_2/div_grad/RealDiv_1"
  input: "dropout_2/keep_prob"
  attr {
    key: "T"
    value {
      type: DT_FLOAT
    }
  }
}
node {
  name: "gradients/dropout_2/div_grad/mul"
  op: "Mul"
  input: "gradients/dropout_2/mul_grad/tuple/control_dependency"
  input: "gradients/dropout_2/div_grad/RealDiv_2"
  attr {
    key: "T"
    value {
      type: DT_FLOAT
    }
  }
}
node {
  name: "gradients/dropout_2/div_grad/Sum_1"
  op: "Sum"
  input: "gradients/dropout_2/div_grad/mul"
  input: "gradients/dropout_2/div_grad/BroadcastGradientArgs:1"
  attr {
    key: "T"
    value {
      type: DT_FLOAT
    }
  }
  attr {
    key: "Tidx"
    value {
      type: DT_INT32
    }
  }
  attr {
    key: "keep_dims"
    value {
      b: false
    }
  }
}
node {
  name: "gradients/dropout_2/div_grad/Reshape_1"
  op: "Reshape"
  input: "gradients/dropout_2/div_grad/Sum_1"
  input: "gradients/dropout_2/div_grad/Shape_1"
  attr {
    key: "T"
    value {
      type: DT_FLOAT
    }
  }
  attr {
    key: "Tshape"
    value {
      type: DT_INT32
    }
  }
}
node {
  name: "gradients/dropout_2/div_grad/tuple/group_deps"
  op: "NoOp"
  input: "^gradients/dropout_2/div_grad/Reshape"
  input: "^gradients/dropout_2/div_grad/Reshape_1"
}
node {
  name: "gradients/dropout_2/div_grad/tuple/control_dependency"
  op: "Identity"
  input: "gradients/dropout_2/div_grad/Reshape"
  input: "^gradients/dropout_2/div_grad/tuple/group_deps"
  attr {
    key: "T"
    value {
      type: DT_FLOAT
    }
  }
  attr {
    key: "_class"
    value {
      list {
        s: "loc:@gradients/dropout_2/div_grad/Reshape"
      }
    }
  }
}
node {
  name: "gradients/dropout_2/div_grad/tuple/control_dependency_1"
  op: "Identity"
  input: "gradients/dropout_2/div_grad/Reshape_1"
  input: "^gradients/dropout_2/div_grad/tuple/group_deps"
  attr {
    key: "T"
    value {
      type: DT_FLOAT
    }
  }
  attr {
    key: "_class"
    value {
      list {
        s: "loc:@gradients/dropout_2/div_grad/Reshape_1"
      }
    }
  }
}
node {
  name: "gradients/LeakyRelu_2/Maximum_grad/Shape"
  op: "Shape"
  input: "LeakyRelu_2/mul"
  attr {
    key: "T"
    value {
      type: DT_FLOAT
    }
  }
  attr {
    key: "out_type"
    value {
      type: DT_INT32
    }
  }
}
node {
  name: "gradients/LeakyRelu_2/Maximum_grad/Shape_1"
  op: "Shape"
  input: "fully_connected_2/Relu"
  attr {
    key: "T"
    value {
      type: DT_FLOAT
    }
  }
  attr {
    key: "out_type"
    value {
      type: DT_INT32
    }
  }
}
node {
  name: "gradients/LeakyRelu_2/Maximum_grad/Shape_2"
  op: "Shape"
  input: "gradients/dropout_2/div_grad/tuple/control_dependency"
  attr {
    key: "T"
    value {
      type: DT_FLOAT
    }
  }
  attr {
    key: "out_type"
    value {
      type: DT_INT32
    }
  }
}
node {
  name: "gradients/LeakyRelu_2/Maximum_grad/zeros/Const"
  op: "Const"
  attr {
    key: "dtype"
    value {
      type: DT_FLOAT
    }
  }
  attr {
    key: "value"
    value {
      tensor {
        dtype: DT_FLOAT
        tensor_shape {
        }
        float_val: 0.0
      }
    }
  }
}
node {
  name: "gradients/LeakyRelu_2/Maximum_grad/zeros"
  op: "Fill"
  input: "gradients/LeakyRelu_2/Maximum_grad/Shape_2"
  input: "gradients/LeakyRelu_2/Maximum_grad/zeros/Const"
  attr {
    key: "T"
    value {
      type: DT_FLOAT
    }
  }
}
node {
  name: "gradients/LeakyRelu_2/Maximum_grad/GreaterEqual"
  op: "GreaterEqual"
  input: "LeakyRelu_2/mul"
  input: "fully_connected_2/Relu"
  attr {
    key: "T"
    value {
      type: DT_FLOAT
    }
  }
}
node {
  name: "gradients/LeakyRelu_2/Maximum_grad/BroadcastGradientArgs"
  op: "BroadcastGradientArgs"
  input: "gradients/LeakyRelu_2/Maximum_grad/Shape"
  input: "gradients/LeakyRelu_2/Maximum_grad/Shape_1"
  attr {
    key: "T"
    value {
      type: DT_INT32
    }
  }
}
node {
  name: "gradients/LeakyRelu_2/Maximum_grad/Select"
  op: "Select"
  input: "gradients/LeakyRelu_2/Maximum_grad/GreaterEqual"
  input: "gradients/dropout_2/div_grad/tuple/control_dependency"
  input: "gradients/LeakyRelu_2/Maximum_grad/zeros"
  attr {
    key: "T"
    value {
      type: DT_FLOAT
    }
  }
}
node {
  name: "gradients/LeakyRelu_2/Maximum_grad/Select_1"
  op: "Select"
  input: "gradients/LeakyRelu_2/Maximum_grad/GreaterEqual"
  input: "gradients/LeakyRelu_2/Maximum_grad/zeros"
  input: "gradients/dropout_2/div_grad/tuple/control_dependency"
  attr {
    key: "T"
    value {
      type: DT_FLOAT
    }
  }
}
node {
  name: "gradients/LeakyRelu_2/Maximum_grad/Sum"
  op: "Sum"
  input: "gradients/LeakyRelu_2/Maximum_grad/Select"
  input: "gradients/LeakyRelu_2/Maximum_grad/BroadcastGradientArgs"
  attr {
    key: "T"
    value {
      type: DT_FLOAT
    }
  }
  attr {
    key: "Tidx"
    value {
      type: DT_INT32
    }
  }
  attr {
    key: "keep_dims"
    value {
      b: false
    }
  }
}
node {
  name: "gradients/LeakyRelu_2/Maximum_grad/Reshape"
  op: "Reshape"
  input: "gradients/LeakyRelu_2/Maximum_grad/Sum"
  input: "gradients/LeakyRelu_2/Maximum_grad/Shape"
  attr {
    key: "T"
    value {
      type: DT_FLOAT
    }
  }
  attr {
    key: "Tshape"
    value {
      type: DT_INT32
    }
  }
}
node {
  name: "gradients/LeakyRelu_2/Maximum_grad/Sum_1"
  op: "Sum"
  input: "gradients/LeakyRelu_2/Maximum_grad/Select_1"
  input: "gradients/LeakyRelu_2/Maximum_grad/BroadcastGradientArgs:1"
  attr {
    key: "T"
    value {
      type: DT_FLOAT
    }
  }
  attr {
    key: "Tidx"
    value {
      type: DT_INT32
    }
  }
  attr {
    key: "keep_dims"
    value {
      b: false
    }
  }
}
node {
  name: "gradients/LeakyRelu_2/Maximum_grad/Reshape_1"
  op: "Reshape"
  input: "gradients/LeakyRelu_2/Maximum_grad/Sum_1"
  input: "gradients/LeakyRelu_2/Maximum_grad/Shape_1"
  attr {
    key: "T"
    value {
      type: DT_FLOAT
    }
  }
  attr {
    key: "Tshape"
    value {
      type: DT_INT32
    }
  }
}
node {
  name: "gradients/LeakyRelu_2/Maximum_grad/tuple/group_deps"
  op: "NoOp"
  input: "^gradients/LeakyRelu_2/Maximum_grad/Reshape"
  input: "^gradients/LeakyRelu_2/Maximum_grad/Reshape_1"
}
node {
  name: "gradients/LeakyRelu_2/Maximum_grad/tuple/control_dependency"
  op: "Identity"
  input: "gradients/LeakyRelu_2/Maximum_grad/Reshape"
  input: "^gradients/LeakyRelu_2/Maximum_grad/tuple/group_deps"
  attr {
    key: "T"
    value {
      type: DT_FLOAT
    }
  }
  attr {
    key: "_class"
    value {
      list {
        s: "loc:@gradients/LeakyRelu_2/Maximum_grad/Reshape"
      }
    }
  }
}
node {
  name: "gradients/LeakyRelu_2/Maximum_grad/tuple/control_dependency_1"
  op: "Identity"
  input: "gradients/LeakyRelu_2/Maximum_grad/Reshape_1"
  input: "^gradients/LeakyRelu_2/Maximum_grad/tuple/group_deps"
  attr {
    key: "T"
    value {
      type: DT_FLOAT
    }
  }
  attr {
    key: "_class"
    value {
      list {
        s: "loc:@gradients/LeakyRelu_2/Maximum_grad/Reshape_1"
      }
    }
  }
}
node {
  name: "gradients/LeakyRelu_2/mul_grad/Shape"
  op: "Const"
  attr {
    key: "dtype"
    value {
      type: DT_INT32
    }
  }
  attr {
    key: "value"
    value {
      tensor {
        dtype: DT_INT32
        tensor_shape {
          dim {
          }
        }
      }
    }
  }
}
node {
  name: "gradients/LeakyRelu_2/mul_grad/Shape_1"
  op: "Shape"
  input: "fully_connected_2/Relu"
  attr {
    key: "T"
    value {
      type: DT_FLOAT
    }
  }
  attr {
    key: "out_type"
    value {
      type: DT_INT32
    }
  }
}
node {
  name: "gradients/LeakyRelu_2/mul_grad/BroadcastGradientArgs"
  op: "BroadcastGradientArgs"
  input: "gradients/LeakyRelu_2/mul_grad/Shape"
  input: "gradients/LeakyRelu_2/mul_grad/Shape_1"
  attr {
    key: "T"
    value {
      type: DT_INT32
    }
  }
}
node {
  name: "gradients/LeakyRelu_2/mul_grad/mul"
  op: "Mul"
  input: "gradients/LeakyRelu_2/Maximum_grad/tuple/control_dependency"
  input: "fully_connected_2/Relu"
  attr {
    key: "T"
    value {
      type: DT_FLOAT
    }
  }
}
node {
  name: "gradients/LeakyRelu_2/mul_grad/Sum"
  op: "Sum"
  input: "gradients/LeakyRelu_2/mul_grad/mul"
  input: "gradients/LeakyRelu_2/mul_grad/BroadcastGradientArgs"
  attr {
    key: "T"
    value {
      type: DT_FLOAT
    }
  }
  attr {
    key: "Tidx"
    value {
      type: DT_INT32
    }
  }
  attr {
    key: "keep_dims"
    value {
      b: false
    }
  }
}
node {
  name: "gradients/LeakyRelu_2/mul_grad/Reshape"
  op: "Reshape"
  input: "gradients/LeakyRelu_2/mul_grad/Sum"
  input: "gradients/LeakyRelu_2/mul_grad/Shape"
  attr {
    key: "T"
    value {
      type: DT_FLOAT
    }
  }
  attr {
    key: "Tshape"
    value {
      type: DT_INT32
    }
  }
}
node {
  name: "gradients/LeakyRelu_2/mul_grad/mul_1"
  op: "Mul"
  input: "LeakyRelu_2/alpha"
  input: "gradients/LeakyRelu_2/Maximum_grad/tuple/control_dependency"
  attr {
    key: "T"
    value {
      type: DT_FLOAT
    }
  }
}
node {
  name: "gradients/LeakyRelu_2/mul_grad/Sum_1"
  op: "Sum"
  input: "gradients/LeakyRelu_2/mul_grad/mul_1"
  input: "gradients/LeakyRelu_2/mul_grad/BroadcastGradientArgs:1"
  attr {
    key: "T"
    value {
      type: DT_FLOAT
    }
  }
  attr {
    key: "Tidx"
    value {
      type: DT_INT32
    }
  }
  attr {
    key: "keep_dims"
    value {
      b: false
    }
  }
}
node {
  name: "gradients/LeakyRelu_2/mul_grad/Reshape_1"
  op: "Reshape"
  input: "gradients/LeakyRelu_2/mul_grad/Sum_1"
  input: "gradients/LeakyRelu_2/mul_grad/Shape_1"
  attr {
    key: "T"
    value {
      type: DT_FLOAT
    }
  }
  attr {
    key: "Tshape"
    value {
      type: DT_INT32
    }
  }
}
node {
  name: "gradients/LeakyRelu_2/mul_grad/tuple/group_deps"
  op: "NoOp"
  input: "^gradients/LeakyRelu_2/mul_grad/Reshape"
  input: "^gradients/LeakyRelu_2/mul_grad/Reshape_1"
}
node {
  name: "gradients/LeakyRelu_2/mul_grad/tuple/control_dependency"
  op: "Identity"
  input: "gradients/LeakyRelu_2/mul_grad/Reshape"
  input: "^gradients/LeakyRelu_2/mul_grad/tuple/group_deps"
  attr {
    key: "T"
    value {
      type: DT_FLOAT
    }
  }
  attr {
    key: "_class"
    value {
      list {
        s: "loc:@gradients/LeakyRelu_2/mul_grad/Reshape"
      }
    }
  }
}
node {
  name: "gradients/LeakyRelu_2/mul_grad/tuple/control_dependency_1"
  op: "Identity"
  input: "gradients/LeakyRelu_2/mul_grad/Reshape_1"
  input: "^gradients/LeakyRelu_2/mul_grad/tuple/group_deps"
  attr {
    key: "T"
    value {
      type: DT_FLOAT
    }
  }
  attr {
    key: "_class"
    value {
      list {
        s: "loc:@gradients/LeakyRelu_2/mul_grad/Reshape_1"
      }
    }
  }
}
node {
  name: "gradients/AddN_1"
  op: "AddN"
  input: "gradients/LeakyRelu_2/Maximum_grad/tuple/control_dependency_1"
  input: "gradients/LeakyRelu_2/mul_grad/tuple/control_dependency_1"
  attr {
    key: "N"
    value {
      i: 2
    }
  }
  attr {
    key: "T"
    value {
      type: DT_FLOAT
    }
  }
  attr {
    key: "_class"
    value {
      list {
        s: "loc:@gradients/LeakyRelu_2/Maximum_grad/Reshape_1"
      }
    }
  }
}
node {
  name: "gradients/fully_connected_2/Relu_grad/ReluGrad"
  op: "ReluGrad"
  input: "gradients/AddN_1"
  input: "fully_connected_2/Relu"
  attr {
    key: "T"
    value {
      type: DT_FLOAT
    }
  }
}
node {
  name: "gradients/fully_connected_2/BiasAdd_grad/BiasAddGrad"
  op: "BiasAddGrad"
  input: "gradients/fully_connected_2/Relu_grad/ReluGrad"
  attr {
    key: "T"
    value {
      type: DT_FLOAT
    }
  }
  attr {
    key: "data_format"
    value {
      s: "NHWC"
    }
  }
}
node {
  name: "gradients/fully_connected_2/BiasAdd_grad/tuple/group_deps"
  op: "NoOp"
  input: "^gradients/fully_connected_2/Relu_grad/ReluGrad"
  input: "^gradients/fully_connected_2/BiasAdd_grad/BiasAddGrad"
}
node {
  name: "gradients/fully_connected_2/BiasAdd_grad/tuple/control_dependency"
  op: "Identity"
  input: "gradients/fully_connected_2/Relu_grad/ReluGrad"
  input: "^gradients/fully_connected_2/BiasAdd_grad/tuple/group_deps"
  attr {
    key: "T"
    value {
      type: DT_FLOAT
    }
  }
  attr {
    key: "_class"
    value {
      list {
        s: "loc:@gradients/fully_connected_2/Relu_grad/ReluGrad"
      }
    }
  }
}
node {
  name: "gradients/fully_connected_2/BiasAdd_grad/tuple/control_dependency_1"
  op: "Identity"
  input: "gradients/fully_connected_2/BiasAdd_grad/BiasAddGrad"
  input: "^gradients/fully_connected_2/BiasAdd_grad/tuple/group_deps"
  attr {
    key: "T"
    value {
      type: DT_FLOAT
    }
  }
  attr {
    key: "_class"
    value {
      list {
        s: "loc:@gradients/fully_connected_2/BiasAdd_grad/BiasAddGrad"
      }
    }
  }
}
node {
  name: "gradients/fully_connected_2/MatMul_grad/MatMul"
  op: "MatMul"
  input: "gradients/fully_connected_2/BiasAdd_grad/tuple/control_dependency"
  input: "fully_connected_2/weights/read"
  attr {
    key: "T"
    value {
      type: DT_FLOAT
    }
  }
  attr {
    key: "transpose_a"
    value {
      b: false
    }
  }
  attr {
    key: "transpose_b"
    value {
      b: true
    }
  }
}
node {
  name: "gradients/fully_connected_2/MatMul_grad/MatMul_1"
  op: "MatMul"
  input: "dropout_1/mul"
  input: "gradients/fully_connected_2/BiasAdd_grad/tuple/control_dependency"
  attr {
    key: "T"
    value {
      type: DT_FLOAT
    }
  }
  attr {
    key: "transpose_a"
    value {
      b: true
    }
  }
  attr {
    key: "transpose_b"
    value {
      b: false
    }
  }
}
node {
  name: "gradients/fully_connected_2/MatMul_grad/tuple/group_deps"
  op: "NoOp"
  input: "^gradients/fully_connected_2/MatMul_grad/MatMul"
  input: "^gradients/fully_connected_2/MatMul_grad/MatMul_1"
}
node {
  name: "gradients/fully_connected_2/MatMul_grad/tuple/control_dependency"
  op: "Identity"
  input: "gradients/fully_connected_2/MatMul_grad/MatMul"
  input: "^gradients/fully_connected_2/MatMul_grad/tuple/group_deps"
  attr {
    key: "T"
    value {
      type: DT_FLOAT
    }
  }
  attr {
    key: "_class"
    value {
      list {
        s: "loc:@gradients/fully_connected_2/MatMul_grad/MatMul"
      }
    }
  }
}
node {
  name: "gradients/fully_connected_2/MatMul_grad/tuple/control_dependency_1"
  op: "Identity"
  input: "gradients/fully_connected_2/MatMul_grad/MatMul_1"
  input: "^gradients/fully_connected_2/MatMul_grad/tuple/group_deps"
  attr {
    key: "T"
    value {
      type: DT_FLOAT
    }
  }
  attr {
    key: "_class"
    value {
      list {
        s: "loc:@gradients/fully_connected_2/MatMul_grad/MatMul_1"
      }
    }
  }
}
node {
  name: "gradients/dropout_1/mul_grad/Shape"
  op: "Shape"
  input: "dropout_1/div"
  attr {
    key: "T"
    value {
      type: DT_FLOAT
    }
  }
  attr {
    key: "out_type"
    value {
      type: DT_INT32
    }
  }
}
node {
  name: "gradients/dropout_1/mul_grad/Shape_1"
  op: "Shape"
  input: "dropout_1/Floor"
  attr {
    key: "T"
    value {
      type: DT_FLOAT
    }
  }
  attr {
    key: "out_type"
    value {
      type: DT_INT32
    }
  }
}
node {
  name: "gradients/dropout_1/mul_grad/BroadcastGradientArgs"
  op: "BroadcastGradientArgs"
  input: "gradients/dropout_1/mul_grad/Shape"
  input: "gradients/dropout_1/mul_grad/Shape_1"
  attr {
    key: "T"
    value {
      type: DT_INT32
    }
  }
}
node {
  name: "gradients/dropout_1/mul_grad/mul"
  op: "Mul"
  input: "gradients/fully_connected_2/MatMul_grad/tuple/control_dependency"
  input: "dropout_1/Floor"
  attr {
    key: "T"
    value {
      type: DT_FLOAT
    }
  }
}
node {
  name: "gradients/dropout_1/mul_grad/Sum"
  op: "Sum"
  input: "gradients/dropout_1/mul_grad/mul"
  input: "gradients/dropout_1/mul_grad/BroadcastGradientArgs"
  attr {
    key: "T"
    value {
      type: DT_FLOAT
    }
  }
  attr {
    key: "Tidx"
    value {
      type: DT_INT32
    }
  }
  attr {
    key: "keep_dims"
    value {
      b: false
    }
  }
}
node {
  name: "gradients/dropout_1/mul_grad/Reshape"
  op: "Reshape"
  input: "gradients/dropout_1/mul_grad/Sum"
  input: "gradients/dropout_1/mul_grad/Shape"
  attr {
    key: "T"
    value {
      type: DT_FLOAT
    }
  }
  attr {
    key: "Tshape"
    value {
      type: DT_INT32
    }
  }
}
node {
  name: "gradients/dropout_1/mul_grad/mul_1"
  op: "Mul"
  input: "dropout_1/div"
  input: "gradients/fully_connected_2/MatMul_grad/tuple/control_dependency"
  attr {
    key: "T"
    value {
      type: DT_FLOAT
    }
  }
}
node {
  name: "gradients/dropout_1/mul_grad/Sum_1"
  op: "Sum"
  input: "gradients/dropout_1/mul_grad/mul_1"
  input: "gradients/dropout_1/mul_grad/BroadcastGradientArgs:1"
  attr {
    key: "T"
    value {
      type: DT_FLOAT
    }
  }
  attr {
    key: "Tidx"
    value {
      type: DT_INT32
    }
  }
  attr {
    key: "keep_dims"
    value {
      b: false
    }
  }
}
node {
  name: "gradients/dropout_1/mul_grad/Reshape_1"
  op: "Reshape"
  input: "gradients/dropout_1/mul_grad/Sum_1"
  input: "gradients/dropout_1/mul_grad/Shape_1"
  attr {
    key: "T"
    value {
      type: DT_FLOAT
    }
  }
  attr {
    key: "Tshape"
    value {
      type: DT_INT32
    }
  }
}
node {
  name: "gradients/dropout_1/mul_grad/tuple/group_deps"
  op: "NoOp"
  input: "^gradients/dropout_1/mul_grad/Reshape"
  input: "^gradients/dropout_1/mul_grad/Reshape_1"
}
node {
  name: "gradients/dropout_1/mul_grad/tuple/control_dependency"
  op: "Identity"
  input: "gradients/dropout_1/mul_grad/Reshape"
  input: "^gradients/dropout_1/mul_grad/tuple/group_deps"
  attr {
    key: "T"
    value {
      type: DT_FLOAT
    }
  }
  attr {
    key: "_class"
    value {
      list {
        s: "loc:@gradients/dropout_1/mul_grad/Reshape"
      }
    }
  }
}
node {
  name: "gradients/dropout_1/mul_grad/tuple/control_dependency_1"
  op: "Identity"
  input: "gradients/dropout_1/mul_grad/Reshape_1"
  input: "^gradients/dropout_1/mul_grad/tuple/group_deps"
  attr {
    key: "T"
    value {
      type: DT_FLOAT
    }
  }
  attr {
    key: "_class"
    value {
      list {
        s: "loc:@gradients/dropout_1/mul_grad/Reshape_1"
      }
    }
  }
}
node {
  name: "gradients/dropout_1/div_grad/Shape"
  op: "Shape"
  input: "LeakyRelu_1/Maximum"
  attr {
    key: "T"
    value {
      type: DT_FLOAT
    }
  }
  attr {
    key: "out_type"
    value {
      type: DT_INT32
    }
  }
}
node {
  name: "gradients/dropout_1/div_grad/Shape_1"
  op: "Const"
  attr {
    key: "dtype"
    value {
      type: DT_INT32
    }
  }
  attr {
    key: "value"
    value {
      tensor {
        dtype: DT_INT32
        tensor_shape {
          dim {
          }
        }
      }
    }
  }
}
node {
  name: "gradients/dropout_1/div_grad/BroadcastGradientArgs"
  op: "BroadcastGradientArgs"
  input: "gradients/dropout_1/div_grad/Shape"
  input: "gradients/dropout_1/div_grad/Shape_1"
  attr {
    key: "T"
    value {
      type: DT_INT32
    }
  }
}
node {
  name: "gradients/dropout_1/div_grad/RealDiv"
  op: "RealDiv"
  input: "gradients/dropout_1/mul_grad/tuple/control_dependency"
  input: "dropout_1/keep_prob"
  attr {
    key: "T"
    value {
      type: DT_FLOAT
    }
  }
}
node {
  name: "gradients/dropout_1/div_grad/Sum"
  op: "Sum"
  input: "gradients/dropout_1/div_grad/RealDiv"
  input: "gradients/dropout_1/div_grad/BroadcastGradientArgs"
  attr {
    key: "T"
    value {
      type: DT_FLOAT
    }
  }
  attr {
    key: "Tidx"
    value {
      type: DT_INT32
    }
  }
  attr {
    key: "keep_dims"
    value {
      b: false
    }
  }
}
node {
  name: "gradients/dropout_1/div_grad/Reshape"
  op: "Reshape"
  input: "gradients/dropout_1/div_grad/Sum"
  input: "gradients/dropout_1/div_grad/Shape"
  attr {
    key: "T"
    value {
      type: DT_FLOAT
    }
  }
  attr {
    key: "Tshape"
    value {
      type: DT_INT32
    }
  }
}
node {
  name: "gradients/dropout_1/div_grad/Neg"
  op: "Neg"
  input: "LeakyRelu_1/Maximum"
  attr {
    key: "T"
    value {
      type: DT_FLOAT
    }
  }
}
node {
  name: "gradients/dropout_1/div_grad/RealDiv_1"
  op: "RealDiv"
  input: "gradients/dropout_1/div_grad/Neg"
  input: "dropout_1/keep_prob"
  attr {
    key: "T"
    value {
      type: DT_FLOAT
    }
  }
}
node {
  name: "gradients/dropout_1/div_grad/RealDiv_2"
  op: "RealDiv"
  input: "gradients/dropout_1/div_grad/RealDiv_1"
  input: "dropout_1/keep_prob"
  attr {
    key: "T"
    value {
      type: DT_FLOAT
    }
  }
}
node {
  name: "gradients/dropout_1/div_grad/mul"
  op: "Mul"
  input: "gradients/dropout_1/mul_grad/tuple/control_dependency"
  input: "gradients/dropout_1/div_grad/RealDiv_2"
  attr {
    key: "T"
    value {
      type: DT_FLOAT
    }
  }
}
node {
  name: "gradients/dropout_1/div_grad/Sum_1"
  op: "Sum"
  input: "gradients/dropout_1/div_grad/mul"
  input: "gradients/dropout_1/div_grad/BroadcastGradientArgs:1"
  attr {
    key: "T"
    value {
      type: DT_FLOAT
    }
  }
  attr {
    key: "Tidx"
    value {
      type: DT_INT32
    }
  }
  attr {
    key: "keep_dims"
    value {
      b: false
    }
  }
}
node {
  name: "gradients/dropout_1/div_grad/Reshape_1"
  op: "Reshape"
  input: "gradients/dropout_1/div_grad/Sum_1"
  input: "gradients/dropout_1/div_grad/Shape_1"
  attr {
    key: "T"
    value {
      type: DT_FLOAT
    }
  }
  attr {
    key: "Tshape"
    value {
      type: DT_INT32
    }
  }
}
node {
  name: "gradients/dropout_1/div_grad/tuple/group_deps"
  op: "NoOp"
  input: "^gradients/dropout_1/div_grad/Reshape"
  input: "^gradients/dropout_1/div_grad/Reshape_1"
}
node {
  name: "gradients/dropout_1/div_grad/tuple/control_dependency"
  op: "Identity"
  input: "gradients/dropout_1/div_grad/Reshape"
  input: "^gradients/dropout_1/div_grad/tuple/group_deps"
  attr {
    key: "T"
    value {
      type: DT_FLOAT
    }
  }
  attr {
    key: "_class"
    value {
      list {
        s: "loc:@gradients/dropout_1/div_grad/Reshape"
      }
    }
  }
}
node {
  name: "gradients/dropout_1/div_grad/tuple/control_dependency_1"
  op: "Identity"
  input: "gradients/dropout_1/div_grad/Reshape_1"
  input: "^gradients/dropout_1/div_grad/tuple/group_deps"
  attr {
    key: "T"
    value {
      type: DT_FLOAT
    }
  }
  attr {
    key: "_class"
    value {
      list {
        s: "loc:@gradients/dropout_1/div_grad/Reshape_1"
      }
    }
  }
}
node {
  name: "gradients/LeakyRelu_1/Maximum_grad/Shape"
  op: "Shape"
  input: "LeakyRelu_1/mul"
  attr {
    key: "T"
    value {
      type: DT_FLOAT
    }
  }
  attr {
    key: "out_type"
    value {
      type: DT_INT32
    }
  }
}
node {
  name: "gradients/LeakyRelu_1/Maximum_grad/Shape_1"
  op: "Shape"
  input: "fully_connected_1/Relu"
  attr {
    key: "T"
    value {
      type: DT_FLOAT
    }
  }
  attr {
    key: "out_type"
    value {
      type: DT_INT32
    }
  }
}
node {
  name: "gradients/LeakyRelu_1/Maximum_grad/Shape_2"
  op: "Shape"
  input: "gradients/dropout_1/div_grad/tuple/control_dependency"
  attr {
    key: "T"
    value {
      type: DT_FLOAT
    }
  }
  attr {
    key: "out_type"
    value {
      type: DT_INT32
    }
  }
}
node {
  name: "gradients/LeakyRelu_1/Maximum_grad/zeros/Const"
  op: "Const"
  attr {
    key: "dtype"
    value {
      type: DT_FLOAT
    }
  }
  attr {
    key: "value"
    value {
      tensor {
        dtype: DT_FLOAT
        tensor_shape {
        }
        float_val: 0.0
      }
    }
  }
}
node {
  name: "gradients/LeakyRelu_1/Maximum_grad/zeros"
  op: "Fill"
  input: "gradients/LeakyRelu_1/Maximum_grad/Shape_2"
  input: "gradients/LeakyRelu_1/Maximum_grad/zeros/Const"
  attr {
    key: "T"
    value {
      type: DT_FLOAT
    }
  }
}
node {
  name: "gradients/LeakyRelu_1/Maximum_grad/GreaterEqual"
  op: "GreaterEqual"
  input: "LeakyRelu_1/mul"
  input: "fully_connected_1/Relu"
  attr {
    key: "T"
    value {
      type: DT_FLOAT
    }
  }
}
node {
  name: "gradients/LeakyRelu_1/Maximum_grad/BroadcastGradientArgs"
  op: "BroadcastGradientArgs"
  input: "gradients/LeakyRelu_1/Maximum_grad/Shape"
  input: "gradients/LeakyRelu_1/Maximum_grad/Shape_1"
  attr {
    key: "T"
    value {
      type: DT_INT32
    }
  }
}
node {
  name: "gradients/LeakyRelu_1/Maximum_grad/Select"
  op: "Select"
  input: "gradients/LeakyRelu_1/Maximum_grad/GreaterEqual"
  input: "gradients/dropout_1/div_grad/tuple/control_dependency"
  input: "gradients/LeakyRelu_1/Maximum_grad/zeros"
  attr {
    key: "T"
    value {
      type: DT_FLOAT
    }
  }
}
node {
  name: "gradients/LeakyRelu_1/Maximum_grad/Select_1"
  op: "Select"
  input: "gradients/LeakyRelu_1/Maximum_grad/GreaterEqual"
  input: "gradients/LeakyRelu_1/Maximum_grad/zeros"
  input: "gradients/dropout_1/div_grad/tuple/control_dependency"
  attr {
    key: "T"
    value {
      type: DT_FLOAT
    }
  }
}
node {
  name: "gradients/LeakyRelu_1/Maximum_grad/Sum"
  op: "Sum"
  input: "gradients/LeakyRelu_1/Maximum_grad/Select"
  input: "gradients/LeakyRelu_1/Maximum_grad/BroadcastGradientArgs"
  attr {
    key: "T"
    value {
      type: DT_FLOAT
    }
  }
  attr {
    key: "Tidx"
    value {
      type: DT_INT32
    }
  }
  attr {
    key: "keep_dims"
    value {
      b: false
    }
  }
}
node {
  name: "gradients/LeakyRelu_1/Maximum_grad/Reshape"
  op: "Reshape"
  input: "gradients/LeakyRelu_1/Maximum_grad/Sum"
  input: "gradients/LeakyRelu_1/Maximum_grad/Shape"
  attr {
    key: "T"
    value {
      type: DT_FLOAT
    }
  }
  attr {
    key: "Tshape"
    value {
      type: DT_INT32
    }
  }
}
node {
  name: "gradients/LeakyRelu_1/Maximum_grad/Sum_1"
  op: "Sum"
  input: "gradients/LeakyRelu_1/Maximum_grad/Select_1"
  input: "gradients/LeakyRelu_1/Maximum_grad/BroadcastGradientArgs:1"
  attr {
    key: "T"
    value {
      type: DT_FLOAT
    }
  }
  attr {
    key: "Tidx"
    value {
      type: DT_INT32
    }
  }
  attr {
    key: "keep_dims"
    value {
      b: false
    }
  }
}
node {
  name: "gradients/LeakyRelu_1/Maximum_grad/Reshape_1"
  op: "Reshape"
  input: "gradients/LeakyRelu_1/Maximum_grad/Sum_1"
  input: "gradients/LeakyRelu_1/Maximum_grad/Shape_1"
  attr {
    key: "T"
    value {
      type: DT_FLOAT
    }
  }
  attr {
    key: "Tshape"
    value {
      type: DT_INT32
    }
  }
}
node {
  name: "gradients/LeakyRelu_1/Maximum_grad/tuple/group_deps"
  op: "NoOp"
  input: "^gradients/LeakyRelu_1/Maximum_grad/Reshape"
  input: "^gradients/LeakyRelu_1/Maximum_grad/Reshape_1"
}
node {
  name: "gradients/LeakyRelu_1/Maximum_grad/tuple/control_dependency"
  op: "Identity"
  input: "gradients/LeakyRelu_1/Maximum_grad/Reshape"
  input: "^gradients/LeakyRelu_1/Maximum_grad/tuple/group_deps"
  attr {
    key: "T"
    value {
      type: DT_FLOAT
    }
  }
  attr {
    key: "_class"
    value {
      list {
        s: "loc:@gradients/LeakyRelu_1/Maximum_grad/Reshape"
      }
    }
  }
}
node {
  name: "gradients/LeakyRelu_1/Maximum_grad/tuple/control_dependency_1"
  op: "Identity"
  input: "gradients/LeakyRelu_1/Maximum_grad/Reshape_1"
  input: "^gradients/LeakyRelu_1/Maximum_grad/tuple/group_deps"
  attr {
    key: "T"
    value {
      type: DT_FLOAT
    }
  }
  attr {
    key: "_class"
    value {
      list {
        s: "loc:@gradients/LeakyRelu_1/Maximum_grad/Reshape_1"
      }
    }
  }
}
node {
  name: "gradients/LeakyRelu_1/mul_grad/Shape"
  op: "Const"
  attr {
    key: "dtype"
    value {
      type: DT_INT32
    }
  }
  attr {
    key: "value"
    value {
      tensor {
        dtype: DT_INT32
        tensor_shape {
          dim {
          }
        }
      }
    }
  }
}
node {
  name: "gradients/LeakyRelu_1/mul_grad/Shape_1"
  op: "Shape"
  input: "fully_connected_1/Relu"
  attr {
    key: "T"
    value {
      type: DT_FLOAT
    }
  }
  attr {
    key: "out_type"
    value {
      type: DT_INT32
    }
  }
}
node {
  name: "gradients/LeakyRelu_1/mul_grad/BroadcastGradientArgs"
  op: "BroadcastGradientArgs"
  input: "gradients/LeakyRelu_1/mul_grad/Shape"
  input: "gradients/LeakyRelu_1/mul_grad/Shape_1"
  attr {
    key: "T"
    value {
      type: DT_INT32
    }
  }
}
node {
  name: "gradients/LeakyRelu_1/mul_grad/mul"
  op: "Mul"
  input: "gradients/LeakyRelu_1/Maximum_grad/tuple/control_dependency"
  input: "fully_connected_1/Relu"
  attr {
    key: "T"
    value {
      type: DT_FLOAT
    }
  }
}
node {
  name: "gradients/LeakyRelu_1/mul_grad/Sum"
  op: "Sum"
  input: "gradients/LeakyRelu_1/mul_grad/mul"
  input: "gradients/LeakyRelu_1/mul_grad/BroadcastGradientArgs"
  attr {
    key: "T"
    value {
      type: DT_FLOAT
    }
  }
  attr {
    key: "Tidx"
    value {
      type: DT_INT32
    }
  }
  attr {
    key: "keep_dims"
    value {
      b: false
    }
  }
}
node {
  name: "gradients/LeakyRelu_1/mul_grad/Reshape"
  op: "Reshape"
  input: "gradients/LeakyRelu_1/mul_grad/Sum"
  input: "gradients/LeakyRelu_1/mul_grad/Shape"
  attr {
    key: "T"
    value {
      type: DT_FLOAT
    }
  }
  attr {
    key: "Tshape"
    value {
      type: DT_INT32
    }
  }
}
node {
  name: "gradients/LeakyRelu_1/mul_grad/mul_1"
  op: "Mul"
  input: "LeakyRelu_1/alpha"
  input: "gradients/LeakyRelu_1/Maximum_grad/tuple/control_dependency"
  attr {
    key: "T"
    value {
      type: DT_FLOAT
    }
  }
}
node {
  name: "gradients/LeakyRelu_1/mul_grad/Sum_1"
  op: "Sum"
  input: "gradients/LeakyRelu_1/mul_grad/mul_1"
  input: "gradients/LeakyRelu_1/mul_grad/BroadcastGradientArgs:1"
  attr {
    key: "T"
    value {
      type: DT_FLOAT
    }
  }
  attr {
    key: "Tidx"
    value {
      type: DT_INT32
    }
  }
  attr {
    key: "keep_dims"
    value {
      b: false
    }
  }
}
node {
  name: "gradients/LeakyRelu_1/mul_grad/Reshape_1"
  op: "Reshape"
  input: "gradients/LeakyRelu_1/mul_grad/Sum_1"
  input: "gradients/LeakyRelu_1/mul_grad/Shape_1"
  attr {
    key: "T"
    value {
      type: DT_FLOAT
    }
  }
  attr {
    key: "Tshape"
    value {
      type: DT_INT32
    }
  }
}
node {
  name: "gradients/LeakyRelu_1/mul_grad/tuple/group_deps"
  op: "NoOp"
  input: "^gradients/LeakyRelu_1/mul_grad/Reshape"
  input: "^gradients/LeakyRelu_1/mul_grad/Reshape_1"
}
node {
  name: "gradients/LeakyRelu_1/mul_grad/tuple/control_dependency"
  op: "Identity"
  input: "gradients/LeakyRelu_1/mul_grad/Reshape"
  input: "^gradients/LeakyRelu_1/mul_grad/tuple/group_deps"
  attr {
    key: "T"
    value {
      type: DT_FLOAT
    }
  }
  attr {
    key: "_class"
    value {
      list {
        s: "loc:@gradients/LeakyRelu_1/mul_grad/Reshape"
      }
    }
  }
}
node {
  name: "gradients/LeakyRelu_1/mul_grad/tuple/control_dependency_1"
  op: "Identity"
  input: "gradients/LeakyRelu_1/mul_grad/Reshape_1"
  input: "^gradients/LeakyRelu_1/mul_grad/tuple/group_deps"
  attr {
    key: "T"
    value {
      type: DT_FLOAT
    }
  }
  attr {
    key: "_class"
    value {
      list {
        s: "loc:@gradients/LeakyRelu_1/mul_grad/Reshape_1"
      }
    }
  }
}
node {
  name: "gradients/AddN_2"
  op: "AddN"
  input: "gradients/LeakyRelu_1/Maximum_grad/tuple/control_dependency_1"
  input: "gradients/LeakyRelu_1/mul_grad/tuple/control_dependency_1"
  attr {
    key: "N"
    value {
      i: 2
    }
  }
  attr {
    key: "T"
    value {
      type: DT_FLOAT
    }
  }
  attr {
    key: "_class"
    value {
      list {
        s: "loc:@gradients/LeakyRelu_1/Maximum_grad/Reshape_1"
      }
    }
  }
}
node {
  name: "gradients/fully_connected_1/Relu_grad/ReluGrad"
  op: "ReluGrad"
  input: "gradients/AddN_2"
  input: "fully_connected_1/Relu"
  attr {
    key: "T"
    value {
      type: DT_FLOAT
    }
  }
}
node {
  name: "gradients/fully_connected_1/BiasAdd_grad/BiasAddGrad"
  op: "BiasAddGrad"
  input: "gradients/fully_connected_1/Relu_grad/ReluGrad"
  attr {
    key: "T"
    value {
      type: DT_FLOAT
    }
  }
  attr {
    key: "data_format"
    value {
      s: "NHWC"
    }
  }
}
node {
  name: "gradients/fully_connected_1/BiasAdd_grad/tuple/group_deps"
  op: "NoOp"
  input: "^gradients/fully_connected_1/Relu_grad/ReluGrad"
  input: "^gradients/fully_connected_1/BiasAdd_grad/BiasAddGrad"
}
node {
  name: "gradients/fully_connected_1/BiasAdd_grad/tuple/control_dependency"
  op: "Identity"
  input: "gradients/fully_connected_1/Relu_grad/ReluGrad"
  input: "^gradients/fully_connected_1/BiasAdd_grad/tuple/group_deps"
  attr {
    key: "T"
    value {
      type: DT_FLOAT
    }
  }
  attr {
    key: "_class"
    value {
      list {
        s: "loc:@gradients/fully_connected_1/Relu_grad/ReluGrad"
      }
    }
  }
}
node {
  name: "gradients/fully_connected_1/BiasAdd_grad/tuple/control_dependency_1"
  op: "Identity"
  input: "gradients/fully_connected_1/BiasAdd_grad/BiasAddGrad"
  input: "^gradients/fully_connected_1/BiasAdd_grad/tuple/group_deps"
  attr {
    key: "T"
    value {
      type: DT_FLOAT
    }
  }
  attr {
    key: "_class"
    value {
      list {
        s: "loc:@gradients/fully_connected_1/BiasAdd_grad/BiasAddGrad"
      }
    }
  }
}
node {
  name: "gradients/fully_connected_1/MatMul_grad/MatMul"
  op: "MatMul"
  input: "gradients/fully_connected_1/BiasAdd_grad/tuple/control_dependency"
  input: "fully_connected_1/weights/read"
  attr {
    key: "T"
    value {
      type: DT_FLOAT
    }
  }
  attr {
    key: "transpose_a"
    value {
      b: false
    }
  }
  attr {
    key: "transpose_b"
    value {
      b: true
    }
  }
}
node {
  name: "gradients/fully_connected_1/MatMul_grad/MatMul_1"
  op: "MatMul"
  input: "dropout/mul"
  input: "gradients/fully_connected_1/BiasAdd_grad/tuple/control_dependency"
  attr {
    key: "T"
    value {
      type: DT_FLOAT
    }
  }
  attr {
    key: "transpose_a"
    value {
      b: true
    }
  }
  attr {
    key: "transpose_b"
    value {
      b: false
    }
  }
}
node {
  name: "gradients/fully_connected_1/MatMul_grad/tuple/group_deps"
  op: "NoOp"
  input: "^gradients/fully_connected_1/MatMul_grad/MatMul"
  input: "^gradients/fully_connected_1/MatMul_grad/MatMul_1"
}
node {
  name: "gradients/fully_connected_1/MatMul_grad/tuple/control_dependency"
  op: "Identity"
  input: "gradients/fully_connected_1/MatMul_grad/MatMul"
  input: "^gradients/fully_connected_1/MatMul_grad/tuple/group_deps"
  attr {
    key: "T"
    value {
      type: DT_FLOAT
    }
  }
  attr {
    key: "_class"
    value {
      list {
        s: "loc:@gradients/fully_connected_1/MatMul_grad/MatMul"
      }
    }
  }
}
node {
  name: "gradients/fully_connected_1/MatMul_grad/tuple/control_dependency_1"
  op: "Identity"
  input: "gradients/fully_connected_1/MatMul_grad/MatMul_1"
  input: "^gradients/fully_connected_1/MatMul_grad/tuple/group_deps"
  attr {
    key: "T"
    value {
      type: DT_FLOAT
    }
  }
  attr {
    key: "_class"
    value {
      list {
        s: "loc:@gradients/fully_connected_1/MatMul_grad/MatMul_1"
      }
    }
  }
}
node {
  name: "gradients/dropout/mul_grad/Shape"
  op: "Shape"
  input: "dropout/div"
  attr {
    key: "T"
    value {
      type: DT_FLOAT
    }
  }
  attr {
    key: "out_type"
    value {
      type: DT_INT32
    }
  }
}
node {
  name: "gradients/dropout/mul_grad/Shape_1"
  op: "Shape"
  input: "dropout/Floor"
  attr {
    key: "T"
    value {
      type: DT_FLOAT
    }
  }
  attr {
    key: "out_type"
    value {
      type: DT_INT32
    }
  }
}
node {
  name: "gradients/dropout/mul_grad/BroadcastGradientArgs"
  op: "BroadcastGradientArgs"
  input: "gradients/dropout/mul_grad/Shape"
  input: "gradients/dropout/mul_grad/Shape_1"
  attr {
    key: "T"
    value {
      type: DT_INT32
    }
  }
}
node {
  name: "gradients/dropout/mul_grad/mul"
  op: "Mul"
  input: "gradients/fully_connected_1/MatMul_grad/tuple/control_dependency"
  input: "dropout/Floor"
  attr {
    key: "T"
    value {
      type: DT_FLOAT
    }
  }
}
node {
  name: "gradients/dropout/mul_grad/Sum"
  op: "Sum"
  input: "gradients/dropout/mul_grad/mul"
  input: "gradients/dropout/mul_grad/BroadcastGradientArgs"
  attr {
    key: "T"
    value {
      type: DT_FLOAT
    }
  }
  attr {
    key: "Tidx"
    value {
      type: DT_INT32
    }
  }
  attr {
    key: "keep_dims"
    value {
      b: false
    }
  }
}
node {
  name: "gradients/dropout/mul_grad/Reshape"
  op: "Reshape"
  input: "gradients/dropout/mul_grad/Sum"
  input: "gradients/dropout/mul_grad/Shape"
  attr {
    key: "T"
    value {
      type: DT_FLOAT
    }
  }
  attr {
    key: "Tshape"
    value {
      type: DT_INT32
    }
  }
}
node {
  name: "gradients/dropout/mul_grad/mul_1"
  op: "Mul"
  input: "dropout/div"
  input: "gradients/fully_connected_1/MatMul_grad/tuple/control_dependency"
  attr {
    key: "T"
    value {
      type: DT_FLOAT
    }
  }
}
node {
  name: "gradients/dropout/mul_grad/Sum_1"
  op: "Sum"
  input: "gradients/dropout/mul_grad/mul_1"
  input: "gradients/dropout/mul_grad/BroadcastGradientArgs:1"
  attr {
    key: "T"
    value {
      type: DT_FLOAT
    }
  }
  attr {
    key: "Tidx"
    value {
      type: DT_INT32
    }
  }
  attr {
    key: "keep_dims"
    value {
      b: false
    }
  }
}
node {
  name: "gradients/dropout/mul_grad/Reshape_1"
  op: "Reshape"
  input: "gradients/dropout/mul_grad/Sum_1"
  input: "gradients/dropout/mul_grad/Shape_1"
  attr {
    key: "T"
    value {
      type: DT_FLOAT
    }
  }
  attr {
    key: "Tshape"
    value {
      type: DT_INT32
    }
  }
}
node {
  name: "gradients/dropout/mul_grad/tuple/group_deps"
  op: "NoOp"
  input: "^gradients/dropout/mul_grad/Reshape"
  input: "^gradients/dropout/mul_grad/Reshape_1"
}
node {
  name: "gradients/dropout/mul_grad/tuple/control_dependency"
  op: "Identity"
  input: "gradients/dropout/mul_grad/Reshape"
  input: "^gradients/dropout/mul_grad/tuple/group_deps"
  attr {
    key: "T"
    value {
      type: DT_FLOAT
    }
  }
  attr {
    key: "_class"
    value {
      list {
        s: "loc:@gradients/dropout/mul_grad/Reshape"
      }
    }
  }
}
node {
  name: "gradients/dropout/mul_grad/tuple/control_dependency_1"
  op: "Identity"
  input: "gradients/dropout/mul_grad/Reshape_1"
  input: "^gradients/dropout/mul_grad/tuple/group_deps"
  attr {
    key: "T"
    value {
      type: DT_FLOAT
    }
  }
  attr {
    key: "_class"
    value {
      list {
        s: "loc:@gradients/dropout/mul_grad/Reshape_1"
      }
    }
  }
}
node {
  name: "gradients/dropout/div_grad/Shape"
  op: "Shape"
  input: "LeakyRelu/Maximum"
  attr {
    key: "T"
    value {
      type: DT_FLOAT
    }
  }
  attr {
    key: "out_type"
    value {
      type: DT_INT32
    }
  }
}
node {
  name: "gradients/dropout/div_grad/Shape_1"
  op: "Const"
  attr {
    key: "dtype"
    value {
      type: DT_INT32
    }
  }
  attr {
    key: "value"
    value {
      tensor {
        dtype: DT_INT32
        tensor_shape {
          dim {
          }
        }
      }
    }
  }
}
node {
  name: "gradients/dropout/div_grad/BroadcastGradientArgs"
  op: "BroadcastGradientArgs"
  input: "gradients/dropout/div_grad/Shape"
  input: "gradients/dropout/div_grad/Shape_1"
  attr {
    key: "T"
    value {
      type: DT_INT32
    }
  }
}
node {
  name: "gradients/dropout/div_grad/RealDiv"
  op: "RealDiv"
  input: "gradients/dropout/mul_grad/tuple/control_dependency"
  input: "dropout/keep_prob"
  attr {
    key: "T"
    value {
      type: DT_FLOAT
    }
  }
}
node {
  name: "gradients/dropout/div_grad/Sum"
  op: "Sum"
  input: "gradients/dropout/div_grad/RealDiv"
  input: "gradients/dropout/div_grad/BroadcastGradientArgs"
  attr {
    key: "T"
    value {
      type: DT_FLOAT
    }
  }
  attr {
    key: "Tidx"
    value {
      type: DT_INT32
    }
  }
  attr {
    key: "keep_dims"
    value {
      b: false
    }
  }
}
node {
  name: "gradients/dropout/div_grad/Reshape"
  op: "Reshape"
  input: "gradients/dropout/div_grad/Sum"
  input: "gradients/dropout/div_grad/Shape"
  attr {
    key: "T"
    value {
      type: DT_FLOAT
    }
  }
  attr {
    key: "Tshape"
    value {
      type: DT_INT32
    }
  }
}
node {
  name: "gradients/dropout/div_grad/Neg"
  op: "Neg"
  input: "LeakyRelu/Maximum"
  attr {
    key: "T"
    value {
      type: DT_FLOAT
    }
  }
}
node {
  name: "gradients/dropout/div_grad/RealDiv_1"
  op: "RealDiv"
  input: "gradients/dropout/div_grad/Neg"
  input: "dropout/keep_prob"
  attr {
    key: "T"
    value {
      type: DT_FLOAT
    }
  }
}
node {
  name: "gradients/dropout/div_grad/RealDiv_2"
  op: "RealDiv"
  input: "gradients/dropout/div_grad/RealDiv_1"
  input: "dropout/keep_prob"
  attr {
    key: "T"
    value {
      type: DT_FLOAT
    }
  }
}
node {
  name: "gradients/dropout/div_grad/mul"
  op: "Mul"
  input: "gradients/dropout/mul_grad/tuple/control_dependency"
  input: "gradients/dropout/div_grad/RealDiv_2"
  attr {
    key: "T"
    value {
      type: DT_FLOAT
    }
  }
}
node {
  name: "gradients/dropout/div_grad/Sum_1"
  op: "Sum"
  input: "gradients/dropout/div_grad/mul"
  input: "gradients/dropout/div_grad/BroadcastGradientArgs:1"
  attr {
    key: "T"
    value {
      type: DT_FLOAT
    }
  }
  attr {
    key: "Tidx"
    value {
      type: DT_INT32
    }
  }
  attr {
    key: "keep_dims"
    value {
      b: false
    }
  }
}
node {
  name: "gradients/dropout/div_grad/Reshape_1"
  op: "Reshape"
  input: "gradients/dropout/div_grad/Sum_1"
  input: "gradients/dropout/div_grad/Shape_1"
  attr {
    key: "T"
    value {
      type: DT_FLOAT
    }
  }
  attr {
    key: "Tshape"
    value {
      type: DT_INT32
    }
  }
}
node {
  name: "gradients/dropout/div_grad/tuple/group_deps"
  op: "NoOp"
  input: "^gradients/dropout/div_grad/Reshape"
  input: "^gradients/dropout/div_grad/Reshape_1"
}
node {
  name: "gradients/dropout/div_grad/tuple/control_dependency"
  op: "Identity"
  input: "gradients/dropout/div_grad/Reshape"
  input: "^gradients/dropout/div_grad/tuple/group_deps"
  attr {
    key: "T"
    value {
      type: DT_FLOAT
    }
  }
  attr {
    key: "_class"
    value {
      list {
        s: "loc:@gradients/dropout/div_grad/Reshape"
      }
    }
  }
}
node {
  name: "gradients/dropout/div_grad/tuple/control_dependency_1"
  op: "Identity"
  input: "gradients/dropout/div_grad/Reshape_1"
  input: "^gradients/dropout/div_grad/tuple/group_deps"
  attr {
    key: "T"
    value {
      type: DT_FLOAT
    }
  }
  attr {
    key: "_class"
    value {
      list {
        s: "loc:@gradients/dropout/div_grad/Reshape_1"
      }
    }
  }
}
node {
  name: "gradients/LeakyRelu/Maximum_grad/Shape"
  op: "Shape"
  input: "LeakyRelu/mul"
  attr {
    key: "T"
    value {
      type: DT_FLOAT
    }
  }
  attr {
    key: "out_type"
    value {
      type: DT_INT32
    }
  }
}
node {
  name: "gradients/LeakyRelu/Maximum_grad/Shape_1"
  op: "Shape"
  input: "fully_connected/Relu"
  attr {
    key: "T"
    value {
      type: DT_FLOAT
    }
  }
  attr {
    key: "out_type"
    value {
      type: DT_INT32
    }
  }
}
node {
  name: "gradients/LeakyRelu/Maximum_grad/Shape_2"
  op: "Shape"
  input: "gradients/dropout/div_grad/tuple/control_dependency"
  attr {
    key: "T"
    value {
      type: DT_FLOAT
    }
  }
  attr {
    key: "out_type"
    value {
      type: DT_INT32
    }
  }
}
node {
  name: "gradients/LeakyRelu/Maximum_grad/zeros/Const"
  op: "Const"
  attr {
    key: "dtype"
    value {
      type: DT_FLOAT
    }
  }
  attr {
    key: "value"
    value {
      tensor {
        dtype: DT_FLOAT
        tensor_shape {
        }
        float_val: 0.0
      }
    }
  }
}
node {
  name: "gradients/LeakyRelu/Maximum_grad/zeros"
  op: "Fill"
  input: "gradients/LeakyRelu/Maximum_grad/Shape_2"
  input: "gradients/LeakyRelu/Maximum_grad/zeros/Const"
  attr {
    key: "T"
    value {
      type: DT_FLOAT
    }
  }
}
node {
  name: "gradients/LeakyRelu/Maximum_grad/GreaterEqual"
  op: "GreaterEqual"
  input: "LeakyRelu/mul"
  input: "fully_connected/Relu"
  attr {
    key: "T"
    value {
      type: DT_FLOAT
    }
  }
}
node {
  name: "gradients/LeakyRelu/Maximum_grad/BroadcastGradientArgs"
  op: "BroadcastGradientArgs"
  input: "gradients/LeakyRelu/Maximum_grad/Shape"
  input: "gradients/LeakyRelu/Maximum_grad/Shape_1"
  attr {
    key: "T"
    value {
      type: DT_INT32
    }
  }
}
node {
  name: "gradients/LeakyRelu/Maximum_grad/Select"
  op: "Select"
  input: "gradients/LeakyRelu/Maximum_grad/GreaterEqual"
  input: "gradients/dropout/div_grad/tuple/control_dependency"
  input: "gradients/LeakyRelu/Maximum_grad/zeros"
  attr {
    key: "T"
    value {
      type: DT_FLOAT
    }
  }
}
node {
  name: "gradients/LeakyRelu/Maximum_grad/Select_1"
  op: "Select"
  input: "gradients/LeakyRelu/Maximum_grad/GreaterEqual"
  input: "gradients/LeakyRelu/Maximum_grad/zeros"
  input: "gradients/dropout/div_grad/tuple/control_dependency"
  attr {
    key: "T"
    value {
      type: DT_FLOAT
    }
  }
}
node {
  name: "gradients/LeakyRelu/Maximum_grad/Sum"
  op: "Sum"
  input: "gradients/LeakyRelu/Maximum_grad/Select"
  input: "gradients/LeakyRelu/Maximum_grad/BroadcastGradientArgs"
  attr {
    key: "T"
    value {
      type: DT_FLOAT
    }
  }
  attr {
    key: "Tidx"
    value {
      type: DT_INT32
    }
  }
  attr {
    key: "keep_dims"
    value {
      b: false
    }
  }
}
node {
  name: "gradients/LeakyRelu/Maximum_grad/Reshape"
  op: "Reshape"
  input: "gradients/LeakyRelu/Maximum_grad/Sum"
  input: "gradients/LeakyRelu/Maximum_grad/Shape"
  attr {
    key: "T"
    value {
      type: DT_FLOAT
    }
  }
  attr {
    key: "Tshape"
    value {
      type: DT_INT32
    }
  }
}
node {
  name: "gradients/LeakyRelu/Maximum_grad/Sum_1"
  op: "Sum"
  input: "gradients/LeakyRelu/Maximum_grad/Select_1"
  input: "gradients/LeakyRelu/Maximum_grad/BroadcastGradientArgs:1"
  attr {
    key: "T"
    value {
      type: DT_FLOAT
    }
  }
  attr {
    key: "Tidx"
    value {
      type: DT_INT32
    }
  }
  attr {
    key: "keep_dims"
    value {
      b: false
    }
  }
}
node {
  name: "gradients/LeakyRelu/Maximum_grad/Reshape_1"
  op: "Reshape"
  input: "gradients/LeakyRelu/Maximum_grad/Sum_1"
  input: "gradients/LeakyRelu/Maximum_grad/Shape_1"
  attr {
    key: "T"
    value {
      type: DT_FLOAT
    }
  }
  attr {
    key: "Tshape"
    value {
      type: DT_INT32
    }
  }
}
node {
  name: "gradients/LeakyRelu/Maximum_grad/tuple/group_deps"
  op: "NoOp"
  input: "^gradients/LeakyRelu/Maximum_grad/Reshape"
  input: "^gradients/LeakyRelu/Maximum_grad/Reshape_1"
}
node {
  name: "gradients/LeakyRelu/Maximum_grad/tuple/control_dependency"
  op: "Identity"
  input: "gradients/LeakyRelu/Maximum_grad/Reshape"
  input: "^gradients/LeakyRelu/Maximum_grad/tuple/group_deps"
  attr {
    key: "T"
    value {
      type: DT_FLOAT
    }
  }
  attr {
    key: "_class"
    value {
      list {
        s: "loc:@gradients/LeakyRelu/Maximum_grad/Reshape"
      }
    }
  }
}
node {
  name: "gradients/LeakyRelu/Maximum_grad/tuple/control_dependency_1"
  op: "Identity"
  input: "gradients/LeakyRelu/Maximum_grad/Reshape_1"
  input: "^gradients/LeakyRelu/Maximum_grad/tuple/group_deps"
  attr {
    key: "T"
    value {
      type: DT_FLOAT
    }
  }
  attr {
    key: "_class"
    value {
      list {
        s: "loc:@gradients/LeakyRelu/Maximum_grad/Reshape_1"
      }
    }
  }
}
node {
  name: "gradients/LeakyRelu/mul_grad/Shape"
  op: "Const"
  attr {
    key: "dtype"
    value {
      type: DT_INT32
    }
  }
  attr {
    key: "value"
    value {
      tensor {
        dtype: DT_INT32
        tensor_shape {
          dim {
          }
        }
      }
    }
  }
}
node {
  name: "gradients/LeakyRelu/mul_grad/Shape_1"
  op: "Shape"
  input: "fully_connected/Relu"
  attr {
    key: "T"
    value {
      type: DT_FLOAT
    }
  }
  attr {
    key: "out_type"
    value {
      type: DT_INT32
    }
  }
}
node {
  name: "gradients/LeakyRelu/mul_grad/BroadcastGradientArgs"
  op: "BroadcastGradientArgs"
  input: "gradients/LeakyRelu/mul_grad/Shape"
  input: "gradients/LeakyRelu/mul_grad/Shape_1"
  attr {
    key: "T"
    value {
      type: DT_INT32
    }
  }
}
node {
  name: "gradients/LeakyRelu/mul_grad/mul"
  op: "Mul"
  input: "gradients/LeakyRelu/Maximum_grad/tuple/control_dependency"
  input: "fully_connected/Relu"
  attr {
    key: "T"
    value {
      type: DT_FLOAT
    }
  }
}
node {
  name: "gradients/LeakyRelu/mul_grad/Sum"
  op: "Sum"
  input: "gradients/LeakyRelu/mul_grad/mul"
  input: "gradients/LeakyRelu/mul_grad/BroadcastGradientArgs"
  attr {
    key: "T"
    value {
      type: DT_FLOAT
    }
  }
  attr {
    key: "Tidx"
    value {
      type: DT_INT32
    }
  }
  attr {
    key: "keep_dims"
    value {
      b: false
    }
  }
}
node {
  name: "gradients/LeakyRelu/mul_grad/Reshape"
  op: "Reshape"
  input: "gradients/LeakyRelu/mul_grad/Sum"
  input: "gradients/LeakyRelu/mul_grad/Shape"
  attr {
    key: "T"
    value {
      type: DT_FLOAT
    }
  }
  attr {
    key: "Tshape"
    value {
      type: DT_INT32
    }
  }
}
node {
  name: "gradients/LeakyRelu/mul_grad/mul_1"
  op: "Mul"
  input: "LeakyRelu/alpha"
  input: "gradients/LeakyRelu/Maximum_grad/tuple/control_dependency"
  attr {
    key: "T"
    value {
      type: DT_FLOAT
    }
  }
}
node {
  name: "gradients/LeakyRelu/mul_grad/Sum_1"
  op: "Sum"
  input: "gradients/LeakyRelu/mul_grad/mul_1"
  input: "gradients/LeakyRelu/mul_grad/BroadcastGradientArgs:1"
  attr {
    key: "T"
    value {
      type: DT_FLOAT
    }
  }
  attr {
    key: "Tidx"
    value {
      type: DT_INT32
    }
  }
  attr {
    key: "keep_dims"
    value {
      b: false
    }
  }
}
node {
  name: "gradients/LeakyRelu/mul_grad/Reshape_1"
  op: "Reshape"
  input: "gradients/LeakyRelu/mul_grad/Sum_1"
  input: "gradients/LeakyRelu/mul_grad/Shape_1"
  attr {
    key: "T"
    value {
      type: DT_FLOAT
    }
  }
  attr {
    key: "Tshape"
    value {
      type: DT_INT32
    }
  }
}
node {
  name: "gradients/LeakyRelu/mul_grad/tuple/group_deps"
  op: "NoOp"
  input: "^gradients/LeakyRelu/mul_grad/Reshape"
  input: "^gradients/LeakyRelu/mul_grad/Reshape_1"
}
node {
  name: "gradients/LeakyRelu/mul_grad/tuple/control_dependency"
  op: "Identity"
  input: "gradients/LeakyRelu/mul_grad/Reshape"
  input: "^gradients/LeakyRelu/mul_grad/tuple/group_deps"
  attr {
    key: "T"
    value {
      type: DT_FLOAT
    }
  }
  attr {
    key: "_class"
    value {
      list {
        s: "loc:@gradients/LeakyRelu/mul_grad/Reshape"
      }
    }
  }
}
node {
  name: "gradients/LeakyRelu/mul_grad/tuple/control_dependency_1"
  op: "Identity"
  input: "gradients/LeakyRelu/mul_grad/Reshape_1"
  input: "^gradients/LeakyRelu/mul_grad/tuple/group_deps"
  attr {
    key: "T"
    value {
      type: DT_FLOAT
    }
  }
  attr {
    key: "_class"
    value {
      list {
        s: "loc:@gradients/LeakyRelu/mul_grad/Reshape_1"
      }
    }
  }
}
node {
  name: "gradients/AddN_3"
  op: "AddN"
  input: "gradients/LeakyRelu/Maximum_grad/tuple/control_dependency_1"
  input: "gradients/LeakyRelu/mul_grad/tuple/control_dependency_1"
  attr {
    key: "N"
    value {
      i: 2
    }
  }
  attr {
    key: "T"
    value {
      type: DT_FLOAT
    }
  }
  attr {
    key: "_class"
    value {
      list {
        s: "loc:@gradients/LeakyRelu/Maximum_grad/Reshape_1"
      }
    }
  }
}
node {
  name: "gradients/fully_connected/Relu_grad/ReluGrad"
  op: "ReluGrad"
  input: "gradients/AddN_3"
  input: "fully_connected/Relu"
  attr {
    key: "T"
    value {
      type: DT_FLOAT
    }
  }
}
node {
  name: "gradients/fully_connected/BiasAdd_grad/BiasAddGrad"
  op: "BiasAddGrad"
  input: "gradients/fully_connected/Relu_grad/ReluGrad"
  attr {
    key: "T"
    value {
      type: DT_FLOAT
    }
  }
  attr {
    key: "data_format"
    value {
      s: "NHWC"
    }
  }
}
node {
  name: "gradients/fully_connected/BiasAdd_grad/tuple/group_deps"
  op: "NoOp"
  input: "^gradients/fully_connected/Relu_grad/ReluGrad"
  input: "^gradients/fully_connected/BiasAdd_grad/BiasAddGrad"
}
node {
  name: "gradients/fully_connected/BiasAdd_grad/tuple/control_dependency"
  op: "Identity"
  input: "gradients/fully_connected/Relu_grad/ReluGrad"
  input: "^gradients/fully_connected/BiasAdd_grad/tuple/group_deps"
  attr {
    key: "T"
    value {
      type: DT_FLOAT
    }
  }
  attr {
    key: "_class"
    value {
      list {
        s: "loc:@gradients/fully_connected/Relu_grad/ReluGrad"
      }
    }
  }
}
node {
  name: "gradients/fully_connected/BiasAdd_grad/tuple/control_dependency_1"
  op: "Identity"
  input: "gradients/fully_connected/BiasAdd_grad/BiasAddGrad"
  input: "^gradients/fully_connected/BiasAdd_grad/tuple/group_deps"
  attr {
    key: "T"
    value {
      type: DT_FLOAT
    }
  }
  attr {
    key: "_class"
    value {
      list {
        s: "loc:@gradients/fully_connected/BiasAdd_grad/BiasAddGrad"
      }
    }
  }
}
node {
…
        s: "loc:@fully_connected_3/biases"
      }
    }
  }
  attr {
    key: "container"
    value {
      s: ""
    }
  }
  attr {
    key: "dtype"
    value {
      type: DT_FLOAT
    }
  }
  attr {
    key: "shape"
    value {
      shape {
        dim {
          size: 6
        }
      }
    }
  }
  attr {
    key: "shared_name"
    value {
      s: ""
    }
  }
}
node {
  name: "fully_connected_3/biases/RMSProp/Assign"
  op: "Assign"
  input: "fully_connected_3/biases/RMSProp"
  input: "fully_connected_3/biases/RMSProp/Initializer/ones"
  attr {
    key: "T"
    value {
      type: DT_FLOAT
    }
  }
  attr {
    key: "_class"
    value {
      list {
        s: "loc:@fully_connected_3/biases"
      }
    }
  }
  attr {
    key: "use_locking"
    value {
      b: true
    }
  }
  attr {
    key: "validate_shape"
    value {
      b: true
    }
  }
}
node {
  name: "fully_connected_3/biases/RMSProp/read"
  op: "Identity"
  input: "fully_connected_3/biases/RMSProp"
  attr {
    key: "T"
    value {
      type: DT_FLOAT
    }
  }
  attr {
    key: "_class"
    value {
      list {
        s: "loc:@fully_connected_3/biases"
      }
    }
  }
}
node {
  name: "fully_connected_3/biases/RMSProp_1/Initializer/zeros"
  op: "Const"
  attr {
    key: "_class"
    value {
      list {
        s: "loc:@fully_connected_3/biases"
      }
    }
  }
  attr {
    key: "dtype"
    value {
      type: DT_FLOAT
    }
  }
  attr {
    key: "value"
    value {
      tensor {
        dtype: DT_FLOAT
        tensor_shape {
          dim {
            size: 6
          }
        }
        float_val: 0.0
      }
    }
  }
}
node {
  name: "fully_connected_3/biases/RMSProp_1"
  op: "VariableV2"
  attr {
    key: "_class"
    value {
      list {
        s: "loc:@fully_connected_3/biases"
      }
    }
  }
  attr {
    key: "container"
    value {
      s: ""
    }
  }
  attr {
    key: "dtype"
    value {
      type: DT_FLOAT
    }
  }
  attr {
    key: "shape"
    value {
      shape {
        dim {
          size: 6
        }
      }
    }
  }
  attr {
    key: "shared_name"
    value {
      s: ""
    }
  }
}
node {
  name: "fully_connected_3/biases/RMSProp_1/Assign"
  op: "Assign"
  input: "fully_connected_3/biases/RMSProp_1"
  input: "fully_connected_3/biases/RMSProp_1/Initializer/zeros"
  attr {
    key: "T"
    value {
      type: DT_FLOAT
    }
  }
  attr {
    key: "_class"
    value {
      list {
        s: "loc:@fully_connected_3/biases"
      }
    }
  }
  attr {
    key: "use_locking"
    value {
      b: true
    }
  }
  attr {
    key: "validate_shape"
    value {
      b: true
    }
  }
}
node {
  name: "fully_connected_3/biases/RMSProp_1/read"
  op: "Identity"
  input: "fully_connected_3/biases/RMSProp_1"
  attr {
    key: "T"
    value {
      type: DT_FLOAT
    }
  }
  attr {
    key: "_class"
    value {
      list {
        s: "loc:@fully_connected_3/biases"
      }
    }
  }
}
node {
  name: "RMSProp/learning_rate"
  op: "Const"
  attr {
    key: "dtype"
    value {
      type: DT_FLOAT
    }
  }
  attr {
    key: "value"
    value {
      tensor {
        dtype: DT_FLOAT
        tensor_shape {
        }
        float_val: 0.009999999776482582
      }
    }
  }
}
node {
  name: "RMSProp/decay"
  op: "Const"
  attr {
    key: "dtype"
    value {
      type: DT_FLOAT
    }
  }
  attr {
    key: "value"
    value {
      tensor {
        dtype: DT_FLOAT
        tensor_shape {
        }
        float_val: 0.8999999761581421
      }
    }
  }
}
node {
  name: "RMSProp/momentum"
  op: "Const"
  attr {
    key: "dtype"
    value {
      type: DT_FLOAT
    }
  }
  attr {
    key: "value"
    value {
      tensor {
        dtype: DT_FLOAT
        tensor_shape {
        }
        float_val: 0.0
      }
    }
  }
}
node {
  name: "RMSProp/epsilon"
  op: "Const"
  attr {
    key: "dtype"
    value {
      type: DT_FLOAT
    }
  }
  attr {
    key: "value"
    value {
      tensor {
        dtype: DT_FLOAT
        tensor_shape {
        }
        float_val: 1.000000013351432e-10
      }
    }
  }
}
node {
  name: "RMSProp/update_fully_connected/weights/ApplyRMSProp"
  op: "ApplyRMSProp"
  input: "fully_connected/weights"
  input: "fully_connected/weights/RMSProp"
  input: "fully_connected/weights/RMSProp_1"
  input: "RMSProp/learning_rate"
  input: "RMSProp/decay"
  input: "RMSProp/momentum"
  input: "RMSProp/epsilon"
  input: "gradients/fully_connected/MatMul_grad/tuple/control_dependency_1"
  attr {
    key: "T"
    value {
      type: DT_FLOAT
    }
  }
  attr {
    key: "_class"
    value {
      list {
        s: "loc:@fully_connected/weights"
      }
    }
  }
  attr {
    key: "use_locking"
    value {
      b: false
    }
  }
}
node {
  name: "RMSProp/update_fully_connected/biases/ApplyRMSProp"
  op: "ApplyRMSProp"
  input: "fully_connected/biases"
  input: "fully_connected/biases/RMSProp"
  input: "fully_connected/biases/RMSProp_1"
  input: "RMSProp/learning_rate"
  input: "RMSProp/decay"
  input: "RMSProp/momentum"
  input: "RMSProp/epsilon"
  input: "gradients/fully_connected/BiasAdd_grad/tuple/control_dependency_1"
  attr {
    key: "T"
    value {
      type: DT_FLOAT
    }
  }
  attr {
    key: "_class"
    value {
      list {
        s: "loc:@fully_connected/biases"
      }
    }
  }
  attr {
    key: "use_locking"
    value {
      b: false
    }
  }
}
node {
  name: "RMSProp/update_fully_connected_1/weights/ApplyRMSProp"
  op: "ApplyRMSProp"
  input: "fully_connected_1/weights"
  input: "fully_connected_1/weights/RMSProp"
  input: "fully_connected_1/weights/RMSProp_1"
  input: "RMSProp/learning_rate"
  input: "RMSProp/decay"
  input: "RMSProp/momentum"
  input: "RMSProp/epsilon"
  input: "gradients/fully_connected_1/MatMul_grad/tuple/control_dependency_1"
  attr {
    key: "T"
    value {
      type: DT_FLOAT
    }
  }
  attr {
    key: "_class"
    value {
      list {
        s: "loc:@fully_connected_1/weights"
      }
    }
  }
  attr {
    key: "use_locking"
    value {
      b: false
    }
  }
}
node {
  name: "RMSProp/update_fully_connected_1/biases/ApplyRMSProp"
  op: "ApplyRMSProp"
  input: "fully_connected_1/biases"
  input: "fully_connected_1/biases/RMSProp"
  input: "fully_connected_1/biases/RMSProp_1"
  input: "RMSProp/learning_rate"
  input: "RMSProp/decay"
  input: "RMSProp/momentum"
  input: "RMSProp/epsilon"
  input: "gradients/fully_connected_1/BiasAdd_grad/tuple/control_dependency_1"
  attr {
    key: "T"
    value {
      type: DT_FLOAT
    }
  }
  attr {
    key: "_class"
    value {
      list {
        s: "loc:@fully_connected_1/biases"
      }
    }
  }
  attr {
    key: "use_locking"
    value {
      b: false
    }
  }
}
node {
  name: "RMSProp/update_fully_connected_2/weights/ApplyRMSProp"
  op: "ApplyRMSProp"
  input: "fully_connected_2/weights"
  input: "fully_connected_2/weights/RMSProp"
  input: "fully_connected_2/weights/RMSProp_1"
  input: "RMSProp/learning_rate"
  input: "RMSProp/decay"
  input: "RMSProp/momentum"
  input: "RMSProp/epsilon"
  input: "gradients/fully_connected_2/MatMul_grad/tuple/control_dependency_1"
  attr {
    key: "T"
    value {
      type: DT_FLOAT
    }
  }
  attr {
    key: "_class"
    value {
      list {
        s: "loc:@fully_connected_2/weights"
      }
    }
  }
  attr {
    key: "use_locking"
    value {
      b: false
    }
  }
}
node {
  name: "RMSProp/update_fully_connected_2/biases/ApplyRMSProp"
  op: "ApplyRMSProp"
  input: "fully_connected_2/biases"
  input: "fully_connected_2/biases/RMSProp"
  input: "fully_connected_2/biases/RMSProp_1"
  input: "RMSProp/learning_rate"
  input: "RMSProp/decay"
  input: "RMSProp/momentum"
  input: "RMSProp/epsilon"
  input: "gradients/fully_connected_2/BiasAdd_grad/tuple/control_dependency_1"
  attr {
    key: "T"
    value {
      type: DT_FLOAT
    }
  }
  attr {
    key: "_class"
    value {
      list {
        s: "loc:@fully_connected_2/biases"
      }
    }
  }
  attr {
    key: "use_locking"
    value {
      b: false
    }
  }
}
node {
  name: "RMSProp/update_fully_connected_3/weights/ApplyRMSProp"
  op: "ApplyRMSProp"
  input: "fully_connected_3/weights"
  input: "fully_connected_3/weights/RMSProp"
  input: "fully_connected_3/weights/RMSProp_1"
  input: "RMSProp/learning_rate"
  input: "RMSProp/decay"
  input: "RMSProp/momentum"
  input: "RMSProp/epsilon"
  input: "gradients/fully_connected_3/MatMul_grad/tuple/control_dependency_1"
  attr {
    key: "T"
    value {
      type: DT_FLOAT
    }
  }
  attr {
    key: "_class"
    value {
      list {
        s: "loc:@fully_connected_3/weights"
      }
    }
  }
  attr {
    key: "use_locking"
    value {
      b: false
    }
  }
}
node {
  name: "RMSProp/update_fully_connected_3/biases/ApplyRMSProp"
  op: "ApplyRMSProp"
  input: "fully_connected_3/biases"
  input: "fully_connected_3/biases/RMSProp"
  input: "fully_connected_3/biases/RMSProp_1"
  input: "RMSProp/learning_rate"
  input: "RMSProp/decay"
  input: "RMSProp/momentum"
  input: "RMSProp/epsilon"
  input: "gradients/fully_connected_3/BiasAdd_grad/tuple/control_dependency_1"
  attr {
    key: "T"
    value {
      type: DT_FLOAT
    }
  }
  attr {
    key: "_class"
    value {
      list {
        s: "loc:@fully_connected_3/biases"
      }
    }
  }
  attr {
    key: "use_locking"
    value {
      b: false
    }
  }
}
node {
  name: "RMSProp"
  op: "NoOp"
  input: "^RMSProp/update_fully_connected/weights/ApplyRMSProp"
  input: "^RMSProp/update_fully_connected/biases/ApplyRMSProp"
  input: "^RMSProp/update_fully_connected_1/weights/ApplyRMSProp"
  input: "^RMSProp/update_fully_connected_1/biases/ApplyRMSProp"
  input: "^RMSProp/update_fully_connected_2/weights/ApplyRMSProp"
  input: "^RMSProp/update_fully_connected_2/biases/ApplyRMSProp"
  input: "^RMSProp/update_fully_connected_3/weights/ApplyRMSProp"
  input: "^RMSProp/update_fully_connected_3/biases/ApplyRMSProp"
}
node {
  name: "init"
  op: "NoOp"
  input: "^fully_connected/weights/Assign"
  input: "^fully_connected/biases/Assign"
  input: "^fully_connected_1/weights/Assign"
  input: "^fully_connected_1/biases/Assign"
  input: "^fully_connected_2/weights/Assign"
  input: "^fully_connected_2/biases/Assign"
  input: "^fully_connected_3/weights/Assign"
  input: "^fully_connected_3/biases/Assign"
  input: "^fully_connected/weights/RMSProp/Assign"
  input: "^fully_connected/weights/RMSProp_1/Assign"
  input: "^fully_connected/biases/RMSProp/Assign"
  input: "^fully_connected/biases/RMSProp_1/Assign"
  input: "^fully_connected_1/weights/RMSProp/Assign"
  input: "^fully_connected_1/weights/RMSProp_1/Assign"
  input: "^fully_connected_1/biases/RMSProp/Assign"
  input: "^fully_connected_1/biases/RMSProp_1/Assign"
  input: "^fully_connected_2/weights/RMSProp/Assign"
  input: "^fully_connected_2/weights/RMSProp_1/Assign"
  input: "^fully_connected_2/biases/RMSProp/Assign"
  input: "^fully_connected_2/biases/RMSProp_1/Assign"
  input: "^fully_connected_3/weights/RMSProp/Assign"
  input: "^fully_connected_3/weights/RMSProp_1/Assign"
  input: "^fully_connected_3/biases/RMSProp/Assign"
  input: "^fully_connected_3/biases/RMSProp_1/Assign"
}
node {
  name: "save/Const"
  op: "Const"
  attr {
    key: "dtype"
    value {
      type: DT_STRING
    }
  }
  attr {
    key: "value"
    value {
      tensor {
        dtype: DT_STRING
        tensor_shape {
        }
        string_val: "model"
      }
    }
  }
}
node {
  name: "save/SaveV2/tensor_names"
  op: "Const"
  attr {
    key: "dtype"
    value {
      type: DT_STRING
    }
  }
  attr {
    key: "value"
    value {
      tensor {
        dtype: DT_STRING
        tensor_shape {
          dim {
            size: 24
          }
        }
        string_val: "fully_connected/biases"
        string_val: "fully_connected/biases/RMSProp"
        string_val: "fully_connected/biases/RMSProp_1"
        string_val: "fully_connected/weights"
        string_val: "fully_connected/weights/RMSProp"
        string_val: "fully_connected/weights/RMSProp_1"
        string_val: "fully_connected_1/biases"
        string_val: "fully_connected_1/biases/RMSProp"
        string_val: "fully_connected_1/biases/RMSProp_1"
        string_val: "fully_connected_1/weights"
        string_val: "fully_connected_1/weights/RMSProp"
        string_val: "fully_connected_1/weights/RMSProp_1"
        string_val: "fully_connected_2/biases"
        string_val: "fully_connected_2/biases/RMSProp"
        string_val: "fully_connected_2/biases/RMSProp_1"
        string_val: "fully_connected_2/weights"
        string_val: "fully_connected_2/weights/RMSProp"
        string_val: "fully_connected_2/weights/RMSProp_1"
        string_val: "fully_connected_3/biases"
        string_val: "fully_connected_3/biases/RMSProp"
        string_val: "fully_connected_3/biases/RMSProp_1"
        string_val: "fully_connected_3/weights"
        string_val: "fully_connected_3/weights/RMSProp"
        string_val: "fully_connected_3/weights/RMSProp_1"
      }
    }
  }
}
node {
  name: "save/SaveV2/shape_and_slices"
  op: "Const"
  attr {
    key: "dtype"
    value {
      type: DT_STRING
    }
  }
  attr {
    key: "value"
    value {
      tensor {
        dtype: DT_STRING
        tensor_shape {
          dim {
            size: 24
          }
        }
        string_val: ""
        string_val: ""
        string_val: ""
        string_val: ""
        string_val: ""
        string_val: ""
        string_val: ""
        string_val: ""
        string_val: ""
        string_val: ""
        string_val: ""
        string_val: ""
        string_val: ""
        string_val: ""
        string_val: ""
        string_val: ""
        string_val: ""
        string_val: ""
        string_val: ""
        string_val: ""
        string_val: ""
        string_val: ""
        string_val: ""
        string_val: ""
      }
    }
  }
}
node {
  name: "save/SaveV2"
  op: "SaveV2"
  input: "save/Const"
  input: "save/SaveV2/tensor_names"
  input: "save/SaveV2/shape_and_slices"
  input: "fully_connected/biases"
  input: "fully_connected/biases/RMSProp"
  input: "fully_connected/biases/RMSProp_1"
  input: "fully_connected/weights"
  input: "fully_connected/weights/RMSProp"
  input: "fully_connected/weights/RMSProp_1"
  input: "fully_connected_1/biases"
  input: "fully_connected_1/biases/RMSProp"
  input: "fully_connected_1/biases/RMSProp_1"
  input: "fully_connected_1/weights"
  input: "fully_connected_1/weights/RMSProp"
  input: "fully_connected_1/weights/RMSProp_1"
  input: "fully_connected_2/biases"
  input: "fully_connected_2/biases/RMSProp"
  input: "fully_connected_2/biases/RMSProp_1"
  input: "fully_connected_2/weights"
  input: "fully_connected_2/weights/RMSProp"
  input: "fully_connected_2/weights/RMSProp_1"
  input: "fully_connected_3/biases"
  input: "fully_connected_3/biases/RMSProp"
  input: "fully_connected_3/biases/RMSProp_1"
  input: "fully_connected_3/weights"
  input: "fully_connected_3/weights/RMSProp"
  input: "fully_connected_3/weights/RMSProp_1"
  attr {
    key: "dtypes"
    value {
      list {
        type: DT_FLOAT
        type: DT_FLOAT
        type: DT_FLOAT
        type: DT_FLOAT
        type: DT_FLOAT
        type: DT_FLOAT
        type: DT_FLOAT
        type: DT_FLOAT
        type: DT_FLOAT
        type: DT_FLOAT
        type: DT_FLOAT
        type: DT_FLOAT
        type: DT_FLOAT
        type: DT_FLOAT
        type: DT_FLOAT
        type: DT_FLOAT
        type: DT_FLOAT
        type: DT_FLOAT
        type: DT_FLOAT
        type: DT_FLOAT
        type: DT_FLOAT
        type: DT_FLOAT
        type: DT_FLOAT
        type: DT_FLOAT
      }
    }
  }
}
node {
  name: "save/control_dependency"
  op: "Identity"
  input: "save/Const"
  input: "^save/SaveV2"
  attr {
    key: "T"
    value {
      type: DT_STRING
    }
  }
  attr {
    key: "_class"
    value {
      list {
        s: "loc:@save/Const"
      }
    }
  }
}
node {
  name: "save/RestoreV2/tensor_names"
  op: "Const"
  attr {
    key: "dtype"
    value {
      type: DT_STRING
    }
  }
  attr {
    key: "value"
    value {
      tensor {
        dtype: DT_STRING
        tensor_shape {
          dim {
            size: 1
          }
        }
        string_val: "fully_connected/biases"
      }
    }
  }
}
node {
  name: "save/RestoreV2/shape_and_slices"
  op: "Const"
  attr {
    key: "dtype"
    value {
      type: DT_STRING
    }
  }
  attr {
    key: "value"
    value {
      tensor {
        dtype: DT_STRING
        tensor_shape {
          dim {
            size: 1
          }
        }
        string_val: ""
      }
    }
  }
}
node {
  name: "save/RestoreV2"
  op: "RestoreV2"
  input: "save/Const"
  input: "save/RestoreV2/tensor_names"
  input: "save/RestoreV2/shape_and_slices"
  attr {
    key: "dtypes"
    value {
      list {
        type: DT_FLOAT
      }
    }
  }
}
node {
  name: "save/Assign"
  op: "Assign"
  input: "fully_connected/biases"
  input: "save/RestoreV2"
  attr {
    key: "T"
    value {
      type: DT_FLOAT
    }
  }
  attr {
    key: "_class"
    value {
      list {
        s: "loc:@fully_connected/biases"
      }
    }
  }
  attr {
    key: "use_locking"
    value {
      b: true
    }
  }
  attr {
    key: "validate_shape"
    value {
      b: true
    }
  }
}
node {
  name: "save/RestoreV2_1/tensor_names"
  op: "Const"
  attr {
    key: "dtype"
    value {
      type: DT_STRING
    }
  }
  attr {
    key: "value"
    value {
      tensor {
        dtype: DT_STRING
        tensor_shape {
          dim {
            size: 1
          }
        }
        string_val: "fully_connected/biases/RMSProp"
      }
    }
  }
}
node {
  name: "save/RestoreV2_1/shape_and_slices"
  op: "Const"
  attr {
    key: "dtype"
    value {
      type: DT_STRING
    }
  }
  attr {
    key: "value"
    value {
      tensor {
        dtype: DT_STRING
        tensor_shape {
          dim {
            size: 1
          }
        }
        string_val: ""
      }
    }
  }
}
node {
  name: "save/RestoreV2_1"
  op: "RestoreV2"
  input: "save/Const"
  input: "save/RestoreV2_1/tensor_names"
  input: "save/RestoreV2_1/shape_and_slices"
  attr {
    key: "dtypes"
    value {
      list {
        type: DT_FLOAT
      }
    }
  }
}
node {
  name: "save/Assign_1"
  op: "Assign"
  input: "fully_connected/biases/RMSProp"
  input: "save/RestoreV2_1"
  attr {
    key: "T"
    value {
      type: DT_FLOAT
    }
  }
  attr {
    key: "_class"
    value {
      list {
        s: "loc:@fully_connected/biases"
      }
    }
  }
  attr {
    key: "use_locking"
    value {
      b: true
    }
  }
  attr {
    key: "validate_shape"
    value {
      b: true
    }
  }
}
node {
  name: "save/RestoreV2_2/tensor_names"
  op: "Const"
  attr {
    key: "dtype"
    value {
      type: DT_STRING
    }
  }
  attr {
    key: "value"
    value {
      tensor {
        dtype: DT_STRING
        tensor_shape {
          dim {
            size: 1
          }
        }
        string_val: "fully_connected/biases/RMSProp_1"
      }
    }
  }
}
node {
  name: "save/RestoreV2_2/shape_and_slices"
  op: "Const"
  attr {
    key: "dtype"
    value {
      type: DT_STRING
    }
  }
  attr {
    key: "value"
    value {
      tensor {
        dtype: DT_STRING
        tensor_shape {
          dim {
            size: 1
          }
        }
        string_val: ""
      }
    }
  }
}
node {
  name: "save/RestoreV2_2"
  op: "RestoreV2"
  input: "save/Const"
  input: "save/RestoreV2_2/tensor_names"
  input: "save/RestoreV2_2/shape_and_slices"
  attr {
    key: "dtypes"
    value {
      list {
        type: DT_FLOAT
      }
    }
  }
}
node {
  name: "save/Assign_2"
  op: "Assign"
  input: "fully_connected/biases/RMSProp_1"
  input: "save/RestoreV2_2"
  attr {
    key: "T"
    value {
      type: DT_FLOAT
    }
  }
  attr {
    key: "_class"
    value {
      list {
        s: "loc:@fully_connected/biases"
      }
    }
  }
  attr {
    key: "use_locking"
    value {
      b: true
    }
  }
  attr {
    key: "validate_shape"
    value {
      b: true
    }
  }
}
node {
  name: "save/RestoreV2_3/tensor_names"
  op: "Const"
  attr {
    key: "dtype"
    value {
      type: DT_STRING
    }
  }
  attr {
    key: "value"
    value {
      tensor {
        dtype: DT_STRING
        tensor_shape {
          dim {
            size: 1
          }
        }
        string_val: "fully_connected/weights"
      }
    }
  }
}
node {
  name: "save/RestoreV2_3/shape_and_slices"
  op: "Const"
  attr {
    key: "dtype"
    value {
      type: DT_STRING
    }
  }
  attr {
    key: "value"
    value {
      tensor {
        dtype: DT_STRING
        tensor_shape {
          dim {
            size: 1
          }
        }
        string_val: ""
      }
    }
  }
}
node {
  name: "save/RestoreV2_3"
  op: "RestoreV2"
  input: "save/Const"
  input: "save/RestoreV2_3/tensor_names"
  input: "save/RestoreV2_3/shape_and_slices"
  attr {
    key: "dtypes"
    value {
      list {
        type: DT_FLOAT
      }
    }
  }
}
node {
  name: "save/Assign_3"
  op: "Assign"
  input: "fully_connected/weights"
  input: "save/RestoreV2_3"
  attr {
    key: "T"
    value {
      type: DT_FLOAT
    }
  }
  attr {
    key: "_class"
    value {
      list {
        s: "loc:@fully_connected/weights"
      }
    }
  }
  attr {
    key: "use_locking"
    value {
      b: true
    }
  }
  attr {
    key: "validate_shape"
    value {
      b: true
    }
  }
}
node {
  name: "save/RestoreV2_4/tensor_names"
  op: "Const"
  attr {
    key: "dtype"
    value {
      type: DT_STRING
    }
  }
  attr {
    key: "value"
    value {
      tensor {
        dtype: DT_STRING
        tensor_shape {
          dim {
            size: 1
          }
        }
        string_val: "fully_connected/weights/RMSProp"
      }
    }
  }
}
node {
  name: "save/RestoreV2_4/shape_and_slices"
  op: "Const"
  attr {
    key: "dtype"
    value {
      type: DT_STRING
    }
  }
  attr {
    key: "value"
    value {
      tensor {
        dtype: DT_STRING
        tensor_shape {
          dim {
            size: 1
          }
        }
        string_val: ""
      }
    }
  }
}
node {
  name: "save/RestoreV2_4"
  op: "RestoreV2"
  input: "save/Const"
  input: "save/RestoreV2_4/tensor_names"
  input: "save/RestoreV2_4/shape_and_slices"
  attr {
    key: "dtypes"
    value {
      list {
        type: DT_FLOAT
      }
    }
  }
}
node {
  name: "save/Assign_4"
  op: "Assign"
  input: "fully_connected/weights/RMSProp"
  input: "save/RestoreV2_4"
  attr {
    key: "T"
    value {
      type: DT_FLOAT
    }
  }
  attr {
    key: "_class"
    value {
      list {
        s: "loc:@fully_connected/weights"
      }
    }
  }
  attr {
    key: "use_locking"
    value {
      b: true
    }
  }
  attr {
    key: "validate_shape"
    value {
      b: true
    }
  }
}
node {
  name: "save/RestoreV2_5/tensor_names"
  op: "Const"
  attr {
    key: "dtype"
    value {
      type: DT_STRING
    }
  }
  attr {
    key: "value"
    value {
      tensor {
        dtype: DT_STRING
        tensor_shape {
          dim {
            size: 1
          }
        }
        string_val: "fully_connected/weights/RMSProp_1"
      }
    }
  }
}
node {
  name: "save/RestoreV2_5/shape_and_slices"
  op: "Const"
  attr {
    key: "dtype"
    value {
      type: DT_STRING
    }
  }
  attr {
    key: "value"
    value {
      tensor {
        dtype: DT_STRING
        tensor_shape {
          dim {
            size: 1
          }
        }
        string_val: ""
      }
    }
  }
}
node {
  name: "save/RestoreV2_5"
  op: "RestoreV2"
  input: "save/Const"
  input: "save/RestoreV2_5/tensor_names"
  input: "save/RestoreV2_5/shape_and_slices"
  attr {
    key: "dtypes"
    value {
      list {
        type: DT_FLOAT
      }
    }
  }
}
node {
  name: "save/Assign_5"
  op: "Assign"
  input: "fully_connected/weights/RMSProp_1"
  input: "save/RestoreV2_5"
  attr {
    key: "T"
    value {
      type: DT_FLOAT
    }
  }
  attr {
    key: "_class"
    value {
      list {
        s: "loc:@fully_connected/weights"
      }
    }
  }
  attr {
    key: "use_locking"
    value {
      b: true
    }
  }
  attr {
    key: "validate_shape"
    value {
      b: true
    }
  }
}
node {
  name: "save/RestoreV2_6/tensor_names"
  op: "Const"
  attr {
    key: "dtype"
    value {
      type: DT_STRING
    }
  }
  attr {
    key: "value"
    value {
      tensor {
        dtype: DT_STRING
        tensor_shape {
          dim {
            size: 1
          }
        }
        string_val: "fully_connected_1/biases"
      }
    }
  }
}
node {
  name: "save/RestoreV2_6/shape_and_slices"
  op: "Const"
  attr {
    key: "dtype"
    value {
      type: DT_STRING
    }
  }
  attr {
    key: "value"
    value {
      tensor {
        dtype: DT_STRING
        tensor_shape {
          dim {
            size: 1
          }
        }
        string_val: ""
      }
    }
  }
}
node {
  name: "save/RestoreV2_6"
  op: "RestoreV2"
  input: "save/Const"
  input: "save/RestoreV2_6/tensor_names"
  input: "save/RestoreV2_6/shape_and_slices"
  attr {
    key: "dtypes"
    value {
      list {
        type: DT_FLOAT
      }
    }
  }
}
node {
  name: "save/Assign_6"
  op: "Assign"
  input: "fully_connected_1/biases"
  input: "save/RestoreV2_6"
  attr {
    key: "T"
    value {
      type: DT_FLOAT
    }
  }
  attr {
    key: "_class"
    value {
      list {
        s: "loc:@fully_connected_1/biases"
      }
    }
  }
  attr {
    key: "use_locking"
    value {
      b: true
    }
  }
  attr {
    key: "validate_shape"
    value {
      b: true
    }
  }
}
node {
  name: "save/RestoreV2_7/tensor_names"
  op: "Const"
  attr {
    key: "dtype"
    value {
      type: DT_STRING
    }
  }
  attr {
    key: "value"
    value {
      tensor {
        dtype: DT_STRING
        tensor_shape {
          dim {
            size: 1
          }
        }
        string_val: "fully_connected_1/biases/RMSProp"
      }
    }
  }
}
node {
  name: "save/RestoreV2_7/shape_and_slices"
  op: "Const"
  attr {
    key: "dtype"
    value {
      type: DT_STRING
    }
  }
  attr {
    key: "value"
    value {
      tensor {
        dtype: DT_STRING
        tensor_shape {
          dim {
            size: 1
          }
        }
        string_val: ""
      }
    }
  }
}
node {
  name: "save/RestoreV2_7"
  op: "RestoreV2"
  input: "save/Const"
  input: "save/RestoreV2_7/tensor_names"
  input: "save/RestoreV2_7/shape_and_slices"
  attr {
    key: "dtypes"
    value {
      list {
        type: DT_FLOAT
      }
    }
  }
}
node {
  name: "save/Assign_7"
  op: "Assign"
  input: "fully_connected_1/biases/RMSProp"
  input: "save/RestoreV2_7"
  attr {
    key: "T"
    value {
      type: DT_FLOAT
    }
  }
  attr {
    key: "_class"
    value {
      list {
        s: "loc:@fully_connected_1/biases"
      }
    }
  }
  attr {
    key: "use_locking"
    value {
      b: true
    }
  }
  attr {
    key: "validate_shape"
    value {
      b: true
    }
  }
}
node {
  name: "save/RestoreV2_8/tensor_names"
  op: "Const"
  attr {
    key: "dtype"
    value {
      type: DT_STRING
    }
  }
  attr {
    key: "value"
    value {
      tensor {
        dtype: DT_STRING
        tensor_shape {
          dim {
            size: 1
          }
        }
        string_val: "fully_connected_1/biases/RMSProp_1"
      }
    }
  }
}
node {
  name: "save/RestoreV2_8/shape_and_slices"
  op: "Const"
  attr {
    key: "dtype"
    value {
      type: DT_STRING
    }
  }
  attr {
    key: "value"
    value {
      tensor {
        dtype: DT_STRING
        tensor_shape {
          dim {
            size: 1
          }
        }
        string_val: ""
      }
    }
  }
}
node {
  name: "save/RestoreV2_8"
  op: "RestoreV2"
  input: "save/Const"
  input: "save/RestoreV2_8/tensor_names"
  input: "save/RestoreV2_8/shape_and_slices"
  attr {
    key: "dtypes"
    value {
      list {
        type: DT_FLOAT
      }
    }
  }
}
node {
  name: "save/Assign_8"
  op: "Assign"
  input: "fully_connected_1/biases/RMSProp_1"
  input: "save/RestoreV2_8"
  attr {
    key: "T"
    value {
      type: DT_FLOAT
    }
  }
  attr {
    key: "_class"
    value {
      list {
        s: "loc:@fully_connected_1/biases"
      }
    }
  }
  attr {
    key: "use_locking"
    value {
      b: true
    }
  }
  attr {
    key: "validate_shape"
    value {
      b: true
    }
  }
}
node {
  name: "save/RestoreV2_9/tensor_names"
  op: "Const"
  attr {
    key: "dtype"
    value {
      type: DT_STRING
    }
  }
  attr {
    key: "value"
    value {
      tensor {
        dtype: DT_STRING
        tensor_shape {
          dim {
            size: 1
          }
        }
        string_val: "fully_connected_1/weights"
      }
    }
  }
}
node {
  name: "save/RestoreV2_9/shape_and_slices"
  op: "Const"
  attr {
    key: "dtype"
    value {
      type: DT_STRING
    }
  }
  attr {
    key: "value"
    value {
      tensor {
        dtype: DT_STRING
        tensor_shape {
          dim {
            size: 1
          }
        }
        string_val: ""
      }
    }
  }
}
node {
  name: "save/RestoreV2_9"
  op: "RestoreV2"
  input: "save/Const"
  input: "save/RestoreV2_9/tensor_names"
  input: "save/RestoreV2_9/shape_and_slices"
  attr {
    key: "dtypes"
    value {
      list {
        type: DT_FLOAT
      }
    }
  }
}
node {
  name: "save/Assign_9"
  op: "Assign"
  input: "fully_connected_1/weights"
  input: "save/RestoreV2_9"
  attr {
    key: "T"
    value {
      type: DT_FLOAT
    }
  }
  attr {
    key: "_class"
    value {
      list {
        s: "loc:@fully_connected_1/weights"
      }
    }
  }
  attr {
    key: "use_locking"
    value {
      b: true
    }
  }
  attr {
    key: "validate_shape"
    value {
      b: true
    }
  }
}
node {
  name: "save/RestoreV2_10/tensor_names"
  op: "Const"
  attr {
    key: "dtype"
    value {
      type: DT_STRING
    }
  }
  attr {
    key: "value"
    value {
      tensor {
        dtype: DT_STRING
        tensor_shape {
          dim {
            size: 1
          }
        }
        string_val: "fully_connected_1/weights/RMSProp"
      }
    }
  }
}
node {
  name: "save/RestoreV2_10/shape_and_slices"
  op: "Const"
  attr {
    key: "dtype"
    value {
      type: DT_STRING
    }
  }
  attr {
    key: "value"
    value {
      tensor {
        dtype: DT_STRING
        tensor_shape {
          dim {
            size: 1
          }
        }
        string_val: ""
      }
    }
  }
}
node {
  name: "save/RestoreV2_10"
  op: "RestoreV2"
  input: "save/Const"
  input: "save/RestoreV2_10/tensor_names"
  input: "save/RestoreV2_10/shape_and_slices"
  attr {
    key: "dtypes"
    value {
      list {
        type: DT_FLOAT
      }
    }
  }
}
node {
  name: "save/Assign_10"
  op: "Assign"
  input: "fully_connected_1/weights/RMSProp"
  input: "save/RestoreV2_10"
  attr {
    key: "T"
    value {
      type: DT_FLOAT
    }
  }
  attr {
    key: "_class"
    value {
      list {
        s: "loc:@fully_connected_1/weights"
      }
    }
  }
  attr {
    key: "use_locking"
    value {
      b: true
    }
  }
  attr {
    key: "validate_shape"
    value {
      b: true
    }
  }
}
node {
  name: "save/RestoreV2_11/tensor_names"
  op: "Const"
  attr {
    key: "dtype"
    value {
      type: DT_STRING
    }
  }
  attr {
    key: "value"
    value {
      tensor {
        dtype: DT_STRING
        tensor_shape {
          dim {
            size: 1
          }
        }
        string_val: "fully_connected_1/weights/RMSProp_1"
      }
    }
  }
}
node {
  name: "save/RestoreV2_11/shape_and_slices"
  op: "Const"
  attr {
    key: "dtype"
    value {
      type: DT_STRING
    }
  }
  attr {
    key: "value"
    value {
      tensor {
        dtype: DT_STRING
        tensor_shape {
          dim {
            size: 1
          }
        }
        string_val: ""
      }
    }
  }
}
node {
  name: "save/RestoreV2_11"
  op: "RestoreV2"
  input: "save/Const"
  input: "save/RestoreV2_11/tensor_names"
  input: "save/RestoreV2_11/shape_and_slices"
  attr {
    key: "dtypes"
    value {
      list {
        type: DT_FLOAT
      }
    }
  }
}
node {
  name: "save/Assign_11"
  op: "Assign"
  input: "fully_connected_1/weights/RMSProp_1"
  input: "save/RestoreV2_11"
  attr {
    key: "T"
    value {
      type: DT_FLOAT
    }
  }
  attr {
    key: "_class"
    value {
      list {
        s: "loc:@fully_connected_1/weights"
      }
    }
  }
  attr {
    key: "use_locking"
    value {
      b: true
    }
  }
  attr {
    key: "validate_shape"
    value {
      b: true
    }
  }
}
node {
  name: "save/RestoreV2_12/tensor_names"
  op: "Const"
  attr {
    key: "dtype"
    value {
      type: DT_STRING
    }
  }
  attr {
    key: "value"
    value {
      tensor {
        dtype: DT_STRING
        tensor_shape {
          dim {
            size: 1
          }
        }
        string_val: "fully_connected_2/biases"
      }
    }
  }
}
node {
  name: "save/RestoreV2_12/shape_and_slices"
  op: "Const"
  attr {
    key: "dtype"
    value {
      type: DT_STRING
    }
  }
  attr {
    key: "value"
    value {
      tensor {
        dtype: DT_STRING
        tensor_shape {
          dim {
            size: 1
          }
        }
        string_val: ""
      }
    }
  }
}
node {
  name: "save/RestoreV2_12"
  op: "RestoreV2"
  input: "save/Const"
  input: "save/RestoreV2_12/tensor_names"
  input: "save/RestoreV2_12/shape_and_slices"
  attr {
    key: "dtypes"
    value {
      list {
        type: DT_FLOAT
      }
    }
  }
}
node {
  name: "save/Assign_12"
  op: "Assign"
  input: "fully_connected_2/biases"
  input: "save/RestoreV2_12"
  attr {
    key: "T"
    value {
      type: DT_FLOAT
    }
  }
  attr {
    key: "_class"
    value {
      list {
        s: "loc:@fully_connected_2/biases"
      }
    }
  }
  attr {
    key: "use_locking"
    value {
      b: true
    }
  }
  attr {
    key: "validate_shape"
    value {
      b: true
    }
  }
}
node {
  name: "save/RestoreV2_13/tensor_names"
  op: "Const"
  attr {
    key: "dtype"
    value {
      type: DT_STRING
    }
  }
  attr {
    key: "value"
    value {
      tensor {
        dtype: DT_STRING
        tensor_shape {
          dim {
            size: 1
          }
        }
        string_val: "fully_connected_2/biases/RMSProp"
      }
    }
  }
}
node {
  name: "save/RestoreV2_13/shape_and_slices"
  op: "Const"
  attr {
    key: "dtype"
    value {
      type: DT_STRING
    }
  }
  attr {
    key: "value"
    value {
      tensor {
        dtype: DT_STRING
        tensor_shape {
          dim {
            size: 1
          }
        }
        string_val: ""
      }
    }
  }
}
node {
  name: "save/RestoreV2_13"
  op: "RestoreV2"
  input: "save/Const"
  input: "save/RestoreV2_13/tensor_names"
  input: "save/RestoreV2_13/shape_and_slices"
  attr {
    key: "dtypes"
    value {
      list {
        type: DT_FLOAT
      }
    }
  }
}
node {
  name: "save/Assign_13"
  op: "Assign"
  input: "fully_connected_2/biases/RMSProp"
  input: "save/RestoreV2_13"
  attr {
    key: "T"
    value {
      type: DT_FLOAT
    }
  }
  attr {
    key: "_class"
    value {
      list {
        s: "loc:@fully_connected_2/biases"
      }
    }
  }
  attr {
    key: "use_locking"
    value {
      b: true
    }
  }
  attr {
    key: "validate_shape"
    value {
      b: true
    }
  }
}
node {
  name: "save/RestoreV2_14/tensor_names"
  op: "Const"
  attr {
    key: "dtype"
    value {
      type: DT_STRING
    }
  }
  attr {
    key: "value"
    value {
      tensor {
        dtype: DT_STRING
        tensor_shape {
          dim {
            size: 1
          }
        }
        string_val: "fully_connected_2/biases/RMSProp_1"
      }
    }
  }
}
node {
  name: "save/RestoreV2_14/shape_and_slices"
  op: "Const"
  attr {
    key: "dtype"
    value {
      type: DT_STRING
    }
  }
  attr {
    key: "value"
    value {
      tensor {
        dtype: DT_STRING
        tensor_shape {
          dim {
            size: 1
          }
        }
        string_val: ""
      }
    }
  }
}
node {
  name: "save/RestoreV2_14"
  op: "RestoreV2"
  input: "save/Const"
  input: "save/RestoreV2_14/tensor_names"
  input: "save/RestoreV2_14/shape_and_slices"
  attr {
    key: "dtypes"
    value {
      list {
        type: DT_FLOAT
      }
    }
  }
}
node {
  name: "save/Assign_14"
  op: "Assign"
  input: "fully_connected_2/biases/RMSProp_1"
  input: "save/RestoreV2_14"
  attr {
    key: "T"
    value {
      type: DT_FLOAT
    }
  }
  attr {
    key: "_class"
    value {
      list {
        s: "loc:@fully_connected_2/biases"
      }
    }
  }
  attr {
    key: "use_locking"
    value {
      b: true
    }
  }
  attr {
    key: "validate_shape"
    value {
      b: true
    }
  }
}
node {
  name: "save/RestoreV2_15/tensor_names"
  op: "Const"
  attr {
    key: "dtype"
    value {
      type: DT_STRING
    }
  }
  attr {
    key: "value"
    value {
      tensor {
        dtype: DT_STRING
        tensor_shape {
          dim {
            size: 1
          }
        }
        string_val: "fully_connected_2/weights"
      }
    }
  }
}
node {
  name: "save/RestoreV2_15/shape_and_slices"
  op: "Const"
  attr {
    key: "dtype"
    value {
      type: DT_STRING
    }
  }
  attr {
    key: "value"
    value {
      tensor {
        dtype: DT_STRING
        tensor_shape {
          dim {
            size: 1
          }
        }
        string_val: ""
      }
    }
  }
}
node {
  name: "save/RestoreV2_15"
  op: "RestoreV2"
  input: "save/Const"
  input: "save/RestoreV2_15/tensor_names"
  input: "save/RestoreV2_15/shape_and_slices"
  attr {
    key: "dtypes"
    value {
      list {
        type: DT_FLOAT
      }
    }
  }
}
node {
  name: "save/Assign_15"
  op: "Assign"
  input: "fully_connected_2/weights"
  input: "save/RestoreV2_15"
  attr {
    key: "T"
    value {
      type: DT_FLOAT
    }
  }
  attr {
    key: "_class"
    value {
      list {
        s: "loc:@fully_connected_2/weights"
      }
    }
  }
  attr {
    key: "use_locking"
    value {
      b: true
    }
  }
  attr {
    key: "validate_shape"
    value {
      b: true
    }
  }
}
node {
  name: "save/RestoreV2_16/tensor_names"
  op: "Const"
  attr {
    key: "dtype"
    value {
      type: DT_STRING
    }
  }
  attr {
    key: "value"
    value {
      tensor {
        dtype: DT_STRING
        tensor_shape {
          dim {
            size: 1
          }
        }
        string_val: "fully_connected_2/weights/RMSProp"
      }
    }
  }
}
node {
  name: "save/RestoreV2_16/shape_and_slices"
  op: "Const"
  attr {
    key: "dtype"
    value {
      type: DT_STRING
    }
  }
  attr {
    key: "value"
    value {
      tensor {
        dtype: DT_STRING
        tensor_shape {
          dim {
            size: 1
          }
        }
        string_val: ""
      }
    }
  }
}
node {
  name: "save/RestoreV2_16"
  op: "RestoreV2"
  input: "save/Const"
  input: "save/RestoreV2_16/tensor_names"
  input: "save/RestoreV2_16/shape_and_slices"
  attr {
    key: "dtypes"
    value {
      list {
        type: DT_FLOAT
      }
    }
  }
}
node {
  name: "save/Assign_16"
  op: "Assign"
  input: "fully_connected_2/weights/RMSProp"
  input: "save/RestoreV2_16"
  attr {
    key: "T"
    value {
      type: DT_FLOAT
    }
  }
  attr {
    key: "_class"
    value {
      list {
        s: "loc:@fully_connected_2/weights"
      }
    }
  }
  attr {
    key: "use_locking"
    value {
      b: true
    }
  }
  attr {
    key: "validate_shape"
    value {
      b: true
    }
  }
}
node {
  name: "save/RestoreV2_17/tensor_names"
  op: "Const"
  attr {
    key: "dtype"
    value {
      type: DT_STRING
    }
  }
  attr {
    key: "value"
    value {
      tensor {
        dtype: DT_STRING
        tensor_shape {
          dim {
            size: 1
          }
        }
        string_val: "fully_connected_2/weights/RMSProp_1"
      }
    }
  }
}
node {
  name: "save/RestoreV2_17/shape_and_slices"
  op: "Const"
  attr {
    key: "dtype"
    value {
      type: DT_STRING
    }
  }
  attr {
    key: "value"
    value {
      tensor {
        dtype: DT_STRING
        tensor_shape {
          dim {
            size: 1
          }
        }
        string_val: ""
      }
    }
  }
}
node {
  name: "save/RestoreV2_17"
  op: "RestoreV2"
  input: "save/Const"
  input: "save/RestoreV2_17/tensor_names"
  input: "save/RestoreV2_17/shape_and_slices"
  attr {
    key: "dtypes"
    value {
      list {
        type: DT_FLOAT
      }
    }
  }
}
node {
  name: "save/Assign_17"
  op: "Assign"
  input: "fully_connected_2/weights/RMSProp_1"
  input: "save/RestoreV2_17"
  attr {
    key: "T"
    value {
      type: DT_FLOAT
    }
  }
  attr {
    key: "_class"
    value {
      list {
        s: "loc:@fully_connected_2/weights"
      }
    }
  }
  attr {
    key: "use_locking"
    value {
      b: true
    }
  }
  attr {
    key: "validate_shape"
    value {
      b: true
    }
  }
}
node {
  name: "save/RestoreV2_18/tensor_names"
  op: "Const"
  attr {
    key: "dtype"
    value {
      type: DT_STRING
    }
  }
  attr {
    key: "value"
    value {
      tensor {
        dtype: DT_STRING
        tensor_shape {
          dim {
            size: 1
          }
        }
        string_val: "fully_connected_3/biases"
      }
    }
  }
}
node {
  name: "save/RestoreV2_18/shape_and_slices"
  op: "Const"
  attr {
    key: "dtype"
    value {
      type: DT_STRING
    }
  }
  attr {
    key: "value"
    value {
      tensor {
        dtype: DT_STRING
        tensor_shape {
          dim {
            size: 1
          }
        }
        string_val: ""
      }
    }
  }
}
node {
  name: "save/RestoreV2_18"
  op: "RestoreV2"
  input: "save/Const"
  input: "save/RestoreV2_18/tensor_names"
  input: "save/RestoreV2_18/shape_and_slices"
  attr {
    key: "dtypes"
    value {
      list {
        type: DT_FLOAT
      }
    }
  }
}
node {
  name: "save/Assign_18"
  op: "Assign"
  input: "fully_connected_3/biases"
  input: "save/RestoreV2_18"
  attr {
    key: "T"
    value {
      type: DT_FLOAT
    }
  }
  attr {
    key: "_class"
    value {
      list {
        s: "loc:@fully_connected_3/biases"
      }
    }
  }
  attr {
    key: "use_locking"
    value {
      b: true
    }
  }
  attr {
    key: "validate_shape"
    value {
      b: true
    }
  }
}
node {
  name: "save/RestoreV2_19/tensor_names"
  op: "Const"
  attr {
    key: "dtype"
    value {
      type: DT_STRING
    }
  }
  attr {
    key: "value"
    value {
      tensor {
        dtype: DT_STRING
        tensor_shape {
          dim {
            size: 1
          }
        }
        string_val: "fully_connected_3/biases/RMSProp"
      }
    }
  }
}
node {
  name: "save/RestoreV2_19/shape_and_slices"
  op: "Const"
  attr {
    key: "dtype"
    value {
      type: DT_STRING
    }
  }
  attr {
    key: "value"
    value {
      tensor {
        dtype: DT_STRING
        tensor_shape {
          dim {
            size: 1
          }
        }
        string_val: ""
      }
    }
  }
}
node {
  name: "save/RestoreV2_19"
  op: "RestoreV2"
  input: "save/Const"
  input: "save/RestoreV2_19/tensor_names"
  input: "save/RestoreV2_19/shape_and_slices"
  attr {
    key: "dtypes"
    value {
      list {
        type: DT_FLOAT
      }
    }
  }
}
node {
  name: "save/Assign_19"
  op: "Assign"
  input: "fully_connected_3/biases/RMSProp"
  input: "save/RestoreV2_19"
  attr {
    key: "T"
    value {
      type: DT_FLOAT
    }
  }
  attr {
    key: "_class"
    value {
      list {
        s: "loc:@fully_connected_3/biases"
      }
    }
  }
  attr {
    key: "use_locking"
    value {
      b: true
    }
  }
  attr {
    key: "validate_shape"
    value {
      b: true
    }
  }
}
node {
  name: "save/RestoreV2_20/tensor_names"
  op: "Const"
  attr {
    key: "dtype"
    value {
      type: DT_STRING
    }
  }
  attr {
    key: "value"
    value {
      tensor {
        dtype: DT_STRING
        tensor_shape {
          dim {
            size: 1
          }
        }
        string_val: "fully_connected_3/biases/RMSProp_1"
      }
    }
  }
}
node {
  name: "save/RestoreV2_20/shape_and_slices"
  op: "Const"
  attr {
    key: "dtype"
    value {
      type: DT_STRING
    }
  }
  attr {
    key: "value"
    value {
      tensor {
        dtype: DT_STRING
        tensor_shape {
          dim {
            size: 1
          }
        }
        string_val: ""
      }
    }
  }
}
node {
  name: "save/RestoreV2_20"
  op: "RestoreV2"
  input: "save/Const"
  input: "save/RestoreV2_20/tensor_names"
  input: "save/RestoreV2_20/shape_and_slices"
  attr {
    key: "dtypes"
    value {
      list {
        type: DT_FLOAT
      }
    }
  }
}
node {
  name: "save/Assign_20"
  op: "Assign"
  input: "fully_connected_3/biases/RMSProp_1"
  input: "save/RestoreV2_20"
  attr {
    key: "T"
    value {
      type: DT_FLOAT
    }
  }
  attr {
    key: "_class"
    value {
      list {
        s: "loc:@fully_connected_3/biases"
      }
    }
  }
  attr {
    key: "use_locking"
    value {
      b: true
    }
  }
  attr {
    key: "validate_shape"
    value {
      b: true
    }
  }
}
node {
  name: "save/RestoreV2_21/tensor_names"
  op: "Const"
  attr {
    key: "dtype"
    value {
      type: DT_STRING
    }
  }
  attr {
    key: "value"
    value {
      tensor {
        dtype: DT_STRING
        tensor_shape {
          dim {
            size: 1
          }
        }
        string_val: "fully_connected_3/weights"
      }
    }
  }
}
node {
  name: "save/RestoreV2_21/shape_and_slices"
  op: "Const"
  attr {
    key: "dtype"
    value {
      type: DT_STRING
    }
  }
  attr {
    key: "value"
    value {
      tensor {
        dtype: DT_STRING
        tensor_shape {
          dim {
            size: 1
          }
        }
        string_val: ""
      }
    }
  }
}
node {
  name: "save/RestoreV2_21"
  op: "RestoreV2"
  input: "save/Const"
  input: "save/RestoreV2_21/tensor_names"
  input: "save/RestoreV2_21/shape_and_slices"
  attr {
    key: "dtypes"
    value {
      list {
        type: DT_FLOAT
      }
    }
  }
}
node {
  name: "save/Assign_21"
  op: "Assign"
  input: "fully_connected_3/weights"
  input: "save/RestoreV2_21"
  attr {
    key: "T"
    value {
      type: DT_FLOAT
    }
  }
  attr {
    key: "_class"
    value {
      list {
        s: "loc:@fully_connected_3/weights"
      }
    }
  }
  attr {
    key: "use_locking"
    value {
      b: true
    }
  }
  attr {
    key: "validate_shape"
    value {
      b: true
    }
  }
}
node {
  name: "save/RestoreV2_22/tensor_names"
  op: "Const"
  attr {
    key: "dtype"
    value {
      type: DT_STRING
    }
  }
  attr {
    key: "value"
    value {
      tensor {
        dtype: DT_STRING
        tensor_shape {
          dim {
            size: 1
          }
        }
        string_val: "fully_connected_3/weights/RMSProp"
      }
    }
  }
}
node {
  name: "save/RestoreV2_22/shape_and_slices"
  op: "Const"
  attr {
    key: "dtype"
    value {
      type: DT_STRING
    }
  }
  attr {
    key: "value"
    value {
      tensor {
        dtype: DT_STRING
        tensor_shape {
          dim {
            size: 1
          }
        }
        string_val: ""
      }
    }
  }
}
node {
  name: "save/RestoreV2_22"
  op: "RestoreV2"
  input: "save/Const"
  input: "save/RestoreV2_22/tensor_names"
  input: "save/RestoreV2_22/shape_and_slices"
  attr {
    key: "dtypes"
    value {
      list {
        type: DT_FLOAT
      }
    }
  }
}
node {
  name: "save/Assign_22"
  op: "Assign"
  input: "fully_connected_3/weights/RMSProp"
  input: "save/RestoreV2_22"
  attr {
    key: "T"
    value {
      type: DT_FLOAT
    }
  }
  attr {
    key: "_class"
    value {
      list {
        s: "loc:@fully_connected_3/weights"
      }
    }
  }
  attr {
    key: "use_locking"
    value {
      b: true
    }
  }
  attr {
    key: "validate_shape"
    value {
      b: true
    }
  }
}
node {
  name: "save/RestoreV2_23/tensor_names"
  op: "Const"
  attr {
    key: "dtype"
    value {
      type: DT_STRING
    }
  }
  attr {
    key: "value"
    value {
      tensor {
        dtype: DT_STRING
        tensor_shape {
          dim {
            size: 1
          }
        }
        string_val: "fully_connected_3/weights/RMSProp_1"
      }
    }
  }
}
node {
  name: "save/RestoreV2_23/shape_and_slices"
  op: "Const"
  attr {
    key: "dtype"
    value {
      type: DT_STRING
    }
  }
  attr {
    key: "value"
    value {
      tensor {
        dtype: DT_STRING
        tensor_shape {
          dim {
            size: 1
          }
        }
        string_val: ""
      }
    }
  }
}
node {
  name: "save/RestoreV2_23"
  op: "RestoreV2"
  input: "save/Const"
  input: "save/RestoreV2_23/tensor_names"
  input: "save/RestoreV2_23/shape_and_slices"
  attr {
    key: "dtypes"
    value {
      list {
        type: DT_FLOAT
      }
    }
  }
}
node {
  name: "save/Assign_23"
  op: "Assign"
  input: "fully_connected_3/weights/RMSProp_1"
  input: "save/RestoreV2_23"
  attr {
    key: "T"
    value {
      type: DT_FLOAT
    }
  }
  attr {
    key: "_class"
    value {
      list {
        s: "loc:@fully_connected_3/weights"
      }
    }
  }
  attr {
    key: "use_locking"
    value {
      b: true
    }
  }
  attr {
    key: "validate_shape"
    value {
      b: true
    }
  }
}
node {
  name: "save/restore_all"
  op: "NoOp"
  input: "^save/Assign"
  input: "^save/Assign_1"
  input: "^save/Assign_2"
  input: "^save/Assign_3"
  input: "^save/Assign_4"
  input: "^save/Assign_5"
  input: "^save/Assign_6"
  input: "^save/Assign_7"
  input: "^save/Assign_8"
  input: "^save/Assign_9"
  input: "^save/Assign_10"
  input: "^save/Assign_11"
  input: "^save/Assign_12"
  input: "^save/Assign_13"
  input: "^save/Assign_14"
  input: "^save/Assign_15"
  input: "^save/Assign_16"
  input: "^save/Assign_17"
  input: "^save/Assign_18"
  input: "^save/Assign_19"
  input: "^save/Assign_20"
  input: "^save/Assign_21"
  input: "^save/Assign_22"
  input: "^save/Assign_23"
}
versions {
  producer: 24
}
